model/alisa.tflite (tflite, 206964 bytes, 9 tensors)

arith.constant f4 [1, 32]
00000000: 2bf9 f7bd b722 9f3c 6ff3 9fbe a870 afbd
00000010: 7406 2d3e 4025 813e 78e4 acbe 247c 9dbe
00000020: 9395 563e 3350 b6be 0c12 aa3d 0404 b5be
00000030: 3678 b53d a4d1 50bd 4957 e33d 5646 b0be
00000040: 11b1 0e3e 7036 673e df0b abbe bde3 8c3d
00000050: a873 90be cda3 7b3e 3f27 283e 54c8 363e
00000060: c289 aebe 5712 303e 87d9 0f3e 10ab aebe
00000070: 1d74 24be 6247 8b3d bc77 263e 1e8f b6be
-0.12108072 0.019425733 -0.31240413 -0.08566409 0.16896993 0.25223732 -0.33768058 -0.30758774
0.20955496 -0.35608062 0.083042234 -0.35354626 0.08860819 -0.05098118 0.11100633 -0.34428662
0.13934733 0.2257936 -0.33407494 0.06879375 -0.2821324 0.24574204 0.16421221 0.17849857
-0.34089476 0.17194496 0.14047824 -0.34114885 -0.16059919 0.068007246 0.16256613 -0.35656065

arith.constant1 f4 [32, 32]
00000000: 3978 123d f139 503d d17f ca3d 8ed4 10bc
00000010: 599c b4bd 8f11 42bd e9a2 bebd 3efd 913c
00000020: e098 4cbd e784 963d 7582 153e d6a4 e33c
00000030: 64de 09bd b85d ec3d ca42 1a3e 2340 f8bd
00000040: 1a56 b03d 1a03 36be 61f2 323e f900 d5bd
00000050: 6da6 b1bd ef01 adbd 7010 14be 60f1 483d
00000060: b931 563d 0809 bf3c fc0f 01bd 3c47 133d
00000070: a8cb e4bd dc04 16bd 2d45 103e dfcc a7bd
00000080: c65b 42bd 7048 29be 87b3 85bd 9369 6f3d
00000090: 0491 fd3d 1a57 bf3d be7f 063e c5e3 07be
000000a0: 09c6 3e3e d908 013e 8857 9b3d 2c0a 82bd
000000b0: e7ea 82bd 51ab 15be 5af0 b93d 8b10 4ebd
000000c0: fd12 65bd 4c67 253e 9d0d 10bd 56d0 eabc
000000d0: 3525 c83d 7637 973d 502f 273d 578a 8ebd
000000e0: 2e7a 23bd 251a e9bb 21f1 6c3d 5fc5 e0bd
000000f0: 70b4 2abe d7ef e0bd ea92 4a3e 1931 2f3e
00000100: 75f2 303d 6b3a 943c 17ac 18be 92be 1d3b
00000110: d1b6 b8bd 3325 963d 6d0e b13c 7161 ca3d
00000120: 9236 0fbc 30fa 7dbd 82aa d53d e7f6 f1bd
00000130: 0bc6 983d b28c fb3d f204 b83c ae21 083e
00000140: 346b 133c 2ca1 883c bb10 a03d 9d67 3e3e
00000150: 1bee 2dbd 10bb 2b3e 66c6 06be c261 b33d
00000160: f4e0 b5bc 2acb e3bd da35 e63b 3574 73bd
00000170: 8f69 0f3e ea8c 6c3d a923 9ebd ecab 7d3d
00000180: 4d12 b0bc 322e 05be c1aa 2a3e 7174 f0bd
00000190: 11a5 06be ada4 fc3c 512a 00be c635 04be
000001a0: 0c43 a3bd 5ced 0a3e f278 fdbd 7b55 1c3e
000001b0: 9493 1cbd 7542 02be 53dc d73d 9fc0 113e
000001c0: 6cf4 023e 3e38 ecbd bc1f febb e62b 12be
000001d0: af2f f23d 231a db3d 69db 1bbd 3af6 11be
000001e0: d0e9 32bd eb2b c63d f9df 4b3d de3a 233e
000001f0: 8d38 d1bd dded c93d 9a63 d33b 44b5 6cbc
00000200: 56bf 36be 17b3 293e 2d86 b4bd ba19 41bc
00000210: c5c0 b6bd b4d2 23be 1370 d13b bc4a 80bd
00000220: 9981 c53b 0eb3 7a3d 156d 333c c7db fe3d
00000230: 70e3 0b3e 4c4d 51ba 7979 143c 8fe5 febd
00000240: 4bac 27be 9771 753d 1885 3e3d d4b3 213d
00000250: 253b cb3d 887b 1ebd 9103 593d 07bb ae3d
00000260: 5894 8cbd ccc2 2e3d 8736 273d 0ff1 19bc
00000270: 8795 15be a151 3ebd 6ac8 ac3d 10e1 b2bc
00000280: f4dd 6fbd d963 d5bc aeee 0b3e ed7c db3d
00000290: dd49 343e 1873 aabd 4074 efbc 0d89 eb3d
000002a0: ab90 56bc 3dcd cf3c d95b d2bd 0321 143e
000002b0: 207a 743d 38c0 5abc 6a73 623e b6cb 91bd
000002c0: e66a 8d3d 712c 2d3e 0529 94bd 53d4 e93d
000002d0: 2071 89bd 82b9 e83c 6ed2 ddbd ec92 a9bd
000002e0: 6299 423d b44c 0abd 1a33 b4bd f4e7 b03d
000002f0: 2db1 c9bd ffa1 e5bd f1de 5d3e 3c79 9dbd
00000300: 5244 0ebe dfa0 523d cfbc f5bd b89d 90bd
00000310: c22b 6b3c e482 0e3e a39f 4f3d 0089 ccbd
00000320: 87fe cc3d dff2 1fbe 9966 39be 5b5b b1bd
00000330: 4e98 2abe b16b 03be 494d 043e 1a6d adbd
00000340: 7859 d5bd e6ed e9bd 08fe 0b3e 4fe1 233e
00000350: c215 06be 9b5c 87bc 1673 473d 94bc 443d
00000360: cada abbd 249e 2cbe 1703 e23d c2f3 1fbe
00000370: 9841 923d 6015 dc3d 2f6a 2fbe dc74 2a3e
00000380: 5273 0b3d 310c 523d 10e1 9ebb 4b64 2ebe
00000390: 6055 293c 1386 833c 47e7 21be c605 653d
000003a0: 876e 993c f0d4 9bbd 7854 fb3d 164b 37be
000003b0: 2f23 4b3c 5eea 18be 3417 413d c9b7 703d
000003c0: 70ef ef3d d29a 2d3e 279f 173e 8da1 353c
000003d0: c4e2 f63b ca39 b0bc 5e36 e4bd 662b 483d
000003e0: e3d7 2c3e 4b94 dcbc 517b 71bc 3616 ce3d
000003f0: 42f8 cb3d 6057 033d fe52 82bd f61e a23d
0.035759185 0.050836507 0.0988766 -0.0088397395 -0.088188834 -0.047380026 -0.093084164 0.01782095
-0.04995048 0.07349568 0.14600547 0.02778856 -0.033659354 0.11541313 0.1506454 -0.12121608
0.086101726 -0.1777462 0.17475273 -0.10400576 -0.08674321 -0.084476344 -0.14459395 0.04905832
0.052293513 0.023319736 -0.031509385 0.035956606 -0.11171657 -0.036625728 0.14088888 -0.08193373
-0.047450803 -0.16531539 -0.06528383 0.058450293 0.12381175 0.09342785 0.13134667 -0.13270481
0.18630232 0.12601031 0.07585055 -0.063495964 -0.0639246 -0.14616133 0.090790465 -0.050308745
-0.05592631 0.16152686 -0.035169233 -0.028663795 0.09772722 0.07383625 0.040816605 -0.0695998
-0.03991144 -0.0071137124 0.057847146 -0.109751455 -0.16670394 -0.10983246 0.19782606 0.17108573
0.043199975 0.018094262 -0.14909397 0.0024069888 -0.090192445 0.07331314 0.021613324 0.09881867
-0.008741038 -0.062006176 0.104329124 -0.11814671 0.07459649 0.12282695 0.022463296 0.13294098
0.008997727 0.016678415 0.07815691 0.18594213 -0.042463403 0.16770577 -0.1316162 0.0875888
-0.022201993 -0.11122735 0.0070254626 -0.059436996 0.14005111 0.057751574 -0.077216454 0.061931536
-0.021493101 -0.13005903 0.166667 -0.117409594 -0.13148905 0.030840242 -0.12516142 -0.12911138
-0.079717726 0.13567108 -0.12376584 0.15266983 -0.03822668 -0.12720664 0.105400704 0.14233635
0.12788552 -0.11534165 -0.007755248 -0.14274558 0.11825501 0.106983446 -0.038051043 -0.14254084
-0.043680012 0.096763454 0.049774144 0.15940425 -0.10215864 0.09859822 0.0064510824 -0.014447514
-0.17846426 0.16572224 -0.088146545 -0.011785919 -0.089234866 -0.15998346 0.006391534 -0.062642545
0.006027412 0.061205916 0.0109513 0.12444263 0.1366098 -0.00079842354 0.009062164 -0.124461286
-0.16374318 0.05992278 0.046513647 0.039478138 0.0992339 -0.038692027 0.052981917 0.085317664
-0.06864232 0.04266624 0.040823486 -0.009395852 -0.14607821 -0.046464566 0.084366634 -0.021835834
-0.05856128 -0.026048588 0.13665268 0.10717187 0.17606302 -0.08322734 -0.029230237 0.1150075
-0.013096015 0.02536642 -0.10271425 0.14465718 0.05968678 -0.013351493 0.2211434 -0.07118933
0.06905155 0.16911484 -0.07234386 0.11417451 -0.0671103 0.02840877 -0.10831152 -0.08279976
0.04750956 -0.033764556 -0.08798809 0.086379915 -0.09848247 -0.11212539 0.21667077 -0.07689139
-0.1389325 0.05142295 -0.11998903 -0.070613325 0.014353694 0.13917118 0.05068935 -0.09987068
0.10009485 -0.15619992 -0.18105544 -0.08660003 -0.16659662 -0.1283405 0.12920107 -0.08468075
-0.104174554 -0.11422329 0.13671124 0.16003917 -0.13094237 -0.01652365 0.04869374 0.048031405
-0.0839134 -0.16857201 0.110357456 -0.1562033 0.07141417 0.107462645 -0.1713035 0.16646141
0.034045525 0.051281158 -0.004848607 -0.17030446 0.010335296 0.016055143 -0.15810882 0.05591371
0.018729461 -0.07608974 0.122719705 -0.17899737 0.012398525 -0.14933154 0.04714127 0.05876902
0.11715591 0.1695359 0.14806806 0.01108588 0.007534357 -0.021511931 -0.11143182 0.048869513
0.16879229 -0.02692618 -0.014738874 0.1006283 0.09959461 0.03206575 -0.06363486 0.079160616

arith.constant2 f4 [32, 1536]
00000000: 8303 b63c 141a aebc 5586 f43b b929 0dbb
00000010: 61e8 ddbb 6ede cc3b 790a 27bc a005 523c
00000020: 63f4 84ba c7f0 c93c fb25 ac3c b9b3 b53c
00000030: 386a e1bb dee3 f23c 42db 083c 1d0e 523c
00000040: b3cf 24bb 6c29 7139 f3a1 d63b d880 923c
00000050: ed48 b13c f300 27bc e24a 50bb c812 b8ba
00000060: 0d10 193c 91d2 68bb f650 a7bb 4b7b 853b
00000070: 6594 9dbb 2b71 c1bb e687 a83b 1010 74bc
00000080: 89bf b3bc 6e83 28bb 2120 2a3c 7b2c a9bb
00000090: 045a 66bc 7b24 8f3c bff2 30bc 5352 b7bb
000000a0: b929 3c3c a685 443c 794d 9d3b 6b65 b9bc
000000b0: aa76 983a 4803 77bc 50fd a23c b395 8d3c
000000c0: 59b8 6e3a fbe9 50ba 75af 28bc 2389 cebb
000000d0: 48eb 8d3b 5d62 973c 7d62 5c3c 7005 7b3b
000000e0: e55a 06bc 1ab5 b33c 5592 8cbc 10a4 2e3c
000000f0: 7d6e ab3c 8aee 903c b2a7 79bc debc 8e3c
00000100: 9851 d33c 9ec6 7f3c 24d4 b33c 27a6 793c
00000110: b179 48bc 750b 8b3c 66e6 6bbb 0c5c 203c
00000120: 27b5 8bbb 8578 d33c 3043 f7ba 9273 023d
00000130: df6b ee3c 8e17 4fbb 8835 da3b 4a88 733c
00000140: 9a1d a5bc d148 1abc 5005 cd39 f9f3 06bc
00000150: 09fb 8abb 43a5 f03b 9dce dc3b 4db9 133b
00000160: c4ca 98bc 9ea5 853c ae51 2ebc abe1 933c
00000170: 8b03 4fbc c479 bd3c 2f70 4cbc 6ef1 963b
00000180: 2b4d 963b 8b4d 713b 5a14 c23c 0fb5 08b9
00000190: a865 b63c dc05 663c b544 abbb 589d 723b
000001a0: 814f 44bc fc2a bdbc 0a15 c0bb 357f 52bb
000001b0: 314b 7dbc 8a71 293c 8fea 97bc 03e6 06bb
000001c0: 1e1a a1bc 0594 d63b c1b1 9a3c 32b8 9b3c
000001d0: afe3 6a3c 56a2 633c 7b89 a1bb b991 9fba
000001e0: abac 68bc 1453 643c 4f8a e4bb 347c 9bba
000001f0: 3b45 70bc e8da 483c 2ce5 803c e7dc c33c
00000200: 5d3a 8c3c 4038 59bb dcd5 27bc 001d a1bc
00000210: 6867 5cbc 8e25 a4bc 8cd6 f6bb 61a4 e0bb
00000220: c8c4 08bc a4db 5ebc da1c f93b ab32 39bc
00000230: 3eb1 003a f87a a4bc 5516 0c3c d97b 8cb9
00000240: 83f7 f639 4581 cdbb d6f6 a13c b2dd 8abc
00000250: e658 173b bedd 15bc 3629 90bc c6a7 5f3c
00000260: 3564 8ebc 9f45 a03c 8878 513b fa64 2b3b
00000270: 9013 023c 771f e038 e19e ef3c 28f6 46bc
00000280: 577c a03a 03d8 87ba 1b5b fa3c bd56 913c
00000290: e3ab 6a3c 2c7e 4f3c 0c2f a13c bb29 7bbc
000002a0: 1ade b33c 974d d43c a45e c43c 2bc0 e0bb
000002b0: ec30 08bc c02f 9dbc 6261 b0bc b697 ab3b
000002c0: 5be4 743c cee5 9bbc 7d95 b43c 1fad 02bc
000002d0: d052 af3c ca14 203b d4fa 903c 9501 10bb
000002e0: a918 84bc 53ca df3b 4b47 fdba d405 a4bc
000002f0: c1a5 04bb beab 073b 6f72 f53c 0aee b4bc
00000300: 71db 9f3c 04aa bc3c a1ed a63c 3cf4 e7bb
00000310: def5 473c 04dd ab3c 0ebf 003c da3e c13c
00000320: 6d56 14bd ba65 87bc 1c90 72bc f6ee d63a
00000330: 7157 ae3b 569e c43c 3eea 833c aba1 3d3c
00000340: c8ce cd3b eee7 cc3b 9467 e23c f3ad b33c
00000350: bb2c c13c b83b 97bb b9db 053c 18e2 fcbb
00000360: 06dd 0a3c 6cb0 8abc 52d6 18bc 21cd 8cbc
00000370: 29a2 2e39 17b2 3c3c 997c d0bc 61b6 6fbb
00000380: ef45 c3ba 7bbc f9bc 1eea 493c ca6b b03c
00000390: 3617 123b 23b5 d6bc 24b9 8abc 0bee aa3c
000003a0: 22c1 a33a 23c4 c0bb 7cb1 a03c 8b5f a53c
000003b0: d9f7 2abb 56e1 0bbc e7a4 e63b 0fd2 25bc
000003c0: 3184 8bbc bd7a a53c 0473 3a3c 3dd4 a6bc
000003d0: 161a d3bc a6f4 e63b dd11 973a eef8 803c
000003e0: bef7 e33c fc77 76bc a43b 86bc bd96 aa3b
000003f0: d45c 803c 34aa 62bc d0fb 42bb bceb e8bc
0.022218471 -0.02125267 0.0074623027 -0.0021539761 -0.0067720865 0.0062521016 -0.010195368 0.012818724
-0.0010143634 0.024650944 0.021014204 0.022180425 -0.0068791173 0.029649671 0.008353056 0.012820748
-0.0025148212 0.00022998982 0.0065500676 0.017883703 0.021641219 -0.010193097 -0.0031782915 -0.0014043683
0.009342206 -0.0035525898 -0.005106087 0.0040735356 -0.00480895 -0.0059033833 0.0051431535 -0.014896408
-0.021941917 -0.0025713104 0.010383637 -0.005162773 -0.014059547 0.01747345 -0.010800063 -0.0055945306
0.011484557 0.011994755 0.004800495 -0.022631368 0.0011632044 -0.015076466 0.01989618 0.017283296
0.00091064494 -0.0007969436 -0.0102957385 -0.006302969 0.004331026 0.01847952 0.013451216 0.0038302802
-0.008200382 0.021936942 -0.01715962 0.010659233 0.020926708 0.01769187 -0.015237736 0.017424043
0.025795743 0.015611319 0.021951742 0.015237368 -0.012236045 0.016973237 -0.0035995482 0.009787571
-0.0042635384 0.025814304 -0.0018864628 0.031848498 0.029104171 -0.0031599733 0.0066592135 0.014864037
-0.020155717 -0.009416775 0.00039104605 -0.008236879 -0.0042413515 0.0073439195 0.0067384974 0.0022540868
-0.018651374 0.016314324 -0.010639591 0.018051943 -0.012635122 0.023129351 -0.0124779185 0.0046064174
0.004586836 0.00368199 0.023691345 -0.0001303742 0.02226527 0.014039483 -0.0052266964 0.0037020054
-0.011981846 -0.023091786 -0.005861883 -0.0032119278 -0.015459822 0.010342011 -0.018544463 -0.0020583875
-0.019665774 0.006548407 0.018883588 0.01900873 0.014336511 0.013893684 -0.004929719 -0.0012174166
-0.0142013235 0.013935823 -0.0069744955 -0.0011862577 -0.014664943 0.012259223 0.015734278 0.023909045
0.017117674 -0.00331451 -0.010243859 -0.019667149 -0.013452388 -0.020037439 -0.0075329 -0.006855533
-0.008347698 -0.013602171 0.0076023163 -0.011303584 0.00049092236 -0.020078167 0.008550246 -0.00026795155
0.00047105187 -0.0062715136 0.01977102 -0.016951416 0.002309376 -0.009147106 -0.017597776 0.01365084
-0.017381767 0.019564448 0.0031962711 0.0026152716 0.007939234 0.00010687013 0.029250564 -0.012143649
0.0012244087 -0.0010364059 0.03056102 0.017741555 0.014323208 0.012664359 0.019675754 -0.015329774
0.021956492 0.025915904 0.02397091 -0.0068588457 -0.008312445 -0.019187808 -0.02153081 0.005236591
0.014947022 -0.019030478 0.022043938 -0.007975846 0.021401793 0.0024426454 0.01769773 -0.00219736
-0.01612504 0.006829539 -0.0019323615 -0.02002231 -0.0020240399 0.0020701732 0.029961793 -0.022086162
0.019513818 0.023030289 0.020376982 -0.0070786756 0.012204615 0.020979412 0.007858051 0.02358954
-0.036215235 -0.016528 -0.014804866 0.001639812 0.0053204824 0.024001282 0.016102906 0.011574189
0.0062807538 0.006253234 0.02763728 0.021933531 0.0235809 -0.0046152733 0.008170062 -0.007717382
0.008475548 -0.016929828 -0.009328442 -0.017187657 0.00016654342 0.011517069 -0.025450038 -0.0036577212
-0.0014898161 -0.030485382 0.012323884 0.021535773 0.0022291667 -0.02620942 -0.016933985 0.02086546
0.0012493471 -0.0058827563 0.019615881 0.02018716 -0.002608767 -0.008537611 0.007038701 -0.010120883
-0.017030807 0.020200128 0.011379961 -0.020364875 -0.025769275 0.0070482073 0.0011525709 0.015743699
0.027828094 -0.015043255 -0.01638586 0.0052059577 0.015669264 -0.013834525 -0.0029752143 -0.02843272

model_8/tf.__operators__.add/AddV2/y f4 [32]
00000000: daf1 7cbb 86db 5abc 8fa4 c63c ce17 f73b
00000010: 0655 743b 28a9 383c 00dd 8c3c 2f95 b0bc
00000020: ffa1 9b3c a98d b1bc 3e83 5dbc 6719 893c
00000030: a09c 03ba a745 debc 5b1a a4bc 4f73 bbbb
00000040: 20a4 95ba caef 493b 6184 943c 066c 703c
00000050: 1958 a5bc edaf 533c 7282 01bc 58b4 24bc
00000060: 7eca 5fbb bb4e fcbb e791 31bc 91f4 813b
00000070: c9cf c13c b459 6cbc d10d 12bb fba8 02bc
-0.0038596303 -0.0133580025 0.02424839 0.0075406795 0.0037282123 0.011270799 0.017195225 -0.021555511
0.018998144 -0.021673994 -0.01352006 0.016735746 -0.00050205924 -0.027132822 -0.020032099 -0.005720533
-0.0011416711 0.0030813091 0.01812953 0.014674192 -0.02018361 0.012920362 -0.007904636 -0.010052763
-0.0034147794 -0.007699815 -0.0108380085 0.003965922 0.02365865 -0.014425684 -0.0022286067 -0.007974858

model_8/tf.__operators__.add_1/AddV2/y f4 [32]
00000000: c9e8 afbd 2dbe e83c 9a9a 2abe ebac 203a
00000010: 0ea7 db3d 1718 e7bd 3949 fb3d 0106 6b3d
00000020: 7ea4 f0bd 9110 19be e69b f7bd 30ab b73c
00000030: c3ec 20be 8f6b fb3c 850e bbbd fd6f 26bc
00000040: 3758 bd3d 4029 03be 6584 7fbd fa82 2a3d
00000050: 47f2 ca3d 1088 713d 8618 e43d 267f 11be
00000060: d124 1c3e 693a cf3d ea8f adbd 5207 553b
00000070: ba8e 65bd 51db 743d 3e68 06be c342 413e
-0.08589322 0.028410995 -0.16660538 0.00061292824 0.107252225 -0.11283892 0.122698255 0.057378773
-0.117501244 -0.14947726 -0.12090282 0.022420496 -0.15715317 0.030690936 -0.09133629 -0.010158536
0.09245341 -0.12808704 -0.06238212 0.041628815 0.09909492 0.05896765 0.1113749 -0.1420866
0.1524842 0.10118563 -0.08474715 0.0032505584 -0.056044318 0.05977947 -0.13125703 0.18873124

model_8/tf.math.add_2/Add/y f4 [1, 32]
00000000: 8465 ccbb c033 0c3d 5abb a1bc 8484 d8bc
00000010: 628e e3bb 2944 5d3c 435e a23c eeb7 ba3a
00000020: 1189 6fbc 6293 4abd ab2b d5bc 195e 323c
00000030: 1d7a 7fbc 6de6 913a 3bb2 82bb 97bd f33a
00000040: 3d41 c43c fac0 d8bb e3ef 293c 519f 923c
00000050: bc8f b93c 1b27 44bc f27e 6dbc f704 bb3b
00000060: a85d 48bc 099f 2d3a c32a b2bc be6d 9abc
00000070: 60ff 3b3c cb19 063c b2a8 6c3b f283 84bc
-0.0062376875 0.03422904 -0.019742656 -0.026430376 -0.0069444636 0.01350502 0.019820338 0.0014245489
-0.0146200815 -0.04945696 -0.0260218 0.010886692 -0.015593079 0.0011131294 -0.003988532 0.0018595931
0.02395689 -0.0066148015 0.010372135 0.017898234 0.022651546 -0.011972214 -0.014495598 0.005707379
-0.012229361 0.00066231244 -0.021748906 -0.018851157 0.01147446 0.00818486 0.0036111292 -0.016176198

model_8/tf.math.add_5/Add/y f4 [1, 32]
00000000: 7deb 06bd 9add 093d 6e33 6f3e f7f9 73ba
00000010: 64ff 613d c6e2 543d 1a61 6d3e 30f7 7b3e
00000020: d327 ef3c 6a0e 8d3e 8b79 f8bc 652a 593e
00000030: 768d e43c 0910 363b 1f4a 893c 5872 5c3e
00000040: 7170 5b3d e962 873d 3fe7 693e 7dc4 743d
00000050: 3ae8 603e ac4a 813d 7ef1 f43c cfac 633c
00000060: c4c4 583e f4b9 5b3c e917 b1bb cae7 633e
00000070: bb10 623e 71aa 533d 993b 2fbb 3196 643e
-0.032939423 0.0336586 0.23359463 -0.0009306962 0.0551752 0.05197408 0.23181573 0.24606013
0.029193794 0.2755006 -0.030331394 0.21207578 0.027899485 0.0027780554 0.016758977 0.21527994
0.05357403 0.066106625 0.2284212 0.0597577 0.21963587 0.06313071 0.029900309 0.013896181
0.2116881 0.013411034 -0.0054044616 0.2225639 0.22076695 0.051676217 -0.0026738404 0.22322918

model_8/tf.math.multiply_10/Mul/y f4 [1, 32]
00000000: 6d47 7e3f a95a 813f 0367 7d3f 4e15 7c3f
00000010: 1bd7 803f e6a5 863f a8f9 713f 0a42 7f3f
00000020: 5e5a 7c3f 7d8c 733f 3d15 7c3f bb48 823f
00000030: e5e4 7c3f 3359 803f a193 803f d7c0 803f
00000040: b574 853f 8fb5 7d3f 0239 803f df9f 823f
00000050: 1367 7a3f 202b 733f 36f6 7e3f b7fb 7d3f
00000060: 03cc 7e3f e4cf 7e3f 6b16 7d3f 2262 7d3f
00000070: 5776 7d3f 110c 7e3f e619 803f f628 7d3f
0.9932774 1.0105792 0.9898531 0.9847001 1.0065645 1.0519378 0.9452157 0.9971014
0.9857539 0.95136243 0.9846991 1.0178446 0.98786765 1.0027221 1.0045053 1.005885
1.0426241 0.9910516 1.0017397 1.0205039 0.9781353 0.9498768 0.9959444 0.9921221
0.9953005 0.99535966 0.9886233 0.98977864 0.990087 0.9923716 1.0007904 0.98890626

model_8/tf.math.multiply_22/Mul/y f4 [1, 32]
00000000: d2a7 753f ee79 863f bbbb 9f3f dc22 803f
00000010: a530 8d3f 04f1 8a3f 85fc a03f dd0e a43f
00000020: 0e9c 873f 2c8e af3f c7f1 7e3f 3764 9a3f
00000030: 66bc 843f e279 803f 930c 833f dc70 9b3f
00000040: 4f56 893f 54bd 883f a62a 9f3f 73ab 883f
00000050: d9f5 973f fc40 893f 12f4 823f 916b 833f
00000060: 661b 993f 04d3 813f 5b51 7f3f f95f 9d3f
00000070: eb44 8d3f 4043 863f 46a6 7f3f 24be 9c3f
0.959592 1.050596 1.2479166 1.0010638 1.103047 1.0854802 1.2577063 1.2817036
1.0594499 1.3715262 0.9958767 1.2061833 1.0369995 1.0037196 1.0238212 1.2143817
1.0729464 1.0682778 1.243489 1.0677322 1.1871902 1.0722957 1.0230734 1.0267202
1.1961486 1.0142522 0.99733514 1.2294914 1.1036657 1.0489273 0.9986309 1.2245526
