model/alisa.tflite (tflite, 60888 bytes, 18 tensors)

tfl.pseudo_qconst1 i1 [1, 1088] scale=0.0010687895 zero_point=0
0.02351337 -0.0919159 -0.038476422 -0.014963053 0.025650948 -0.084434375 -0.06626495 0.014963053
-0.09939742 0.010687895 -0.07588406 -0.006412737 -0.04168279 0.04382037 0.0074815266 -0.06626495
-0.04488916 -0.06626495 0.011756685 -0.084434375 0.006412737 -0.011756685 -0.08550316 -0.069471315
-0.058783423 -0.08977832 -0.06626495 -0.098328635 -0.074815266 -0.04382037 -0.002137579 -0.06412737
0.048095528 -0.063058585 0.024582159 -0.098328635 0.019238211 -0.08229679 -0.027788527 -0.028857317
-0.08764074 -0.06198979 -0.040614 -0.04595795 -0.08229679 0.04275158 -0.039545212 -0.09725985
-0.02351337 -0.027788527 0.008550316 -0.036338843 0.04702674 0.0032063685 -0.060921002 -0.032063685
-0.076952845 -0.090847105 -0.053439476 -0.07267769 0.033132475 0.011756685 -0.0010687895 -0.016031843
0.010687895 0.02244458 -0.017100632 0.004275158 0.002137579 -0.08870953 -0.098328635 -0.030994896
-0.04382037 0.024582159 -0.026719738 0.039545212 0.033132475 -0.051301897 -0.009619106 -0.10367258
0.0053439476 -0.056645844 -0.0053439476 -0.08015922 -0.020307 -0.038476422 0.024582159 -0.100466214
-0.07054011 0.04168279 0.012825474 0.008550316 -0.08015922 -0.081228 -0.006412737 -0.010687895
0.028857317 -0.06519616 0.004275158 -0.06733374 -0.030994896 -0.06198979 -0.07054011 0.004275158
-0.11436048 0.04702674 -0.04168279 -0.08870953 0.010687895 0.039545212 -0.018169422 -0.084434375
-0.074815266 -0.06733374 0.0053439476 -0.011756685 0.050233107 -0.024582159 -0.004275158 0.029926106
0.030994896 -0.09939742 0.035270054 -0.040614 0.04488916 -0.069471315 -0.010687895 0.04702674
-0.09512226 -0.04275158 -0.07588406 -0.002137579 -0.030994896 -0.048095528 -0.060921002 -0.04275158
-0.028857317 -0.016031843 0.018169422 -0.08977832 -0.028857317 -0.07054011 -0.030994896 -0.012825474
-0.02351337 0.034201264 0.024582159 -0.059852213 -0.079090424 -0.02244458 -0.02137579 0.017100632
-0.09298469 -0.081228 0.002137579 -0.04702674 -0.02137579 -0.10794774 -0.09512226 0.009619106
-0.0010687895 -0.010687895 -0.02137579 -0.04488916 -0.017100632 0.040614 -0.032063685 -0.054508265
-0.10687895 -0.013894264 0.035270054 -0.100466214 0.026719738 0.027788527 -0.053439476 0.026719738
-0.037407633 0.038476422 -0.07802163 -0.024582159 -0.09298469 0.02137579 -0.016031843 -0.036338843
0.032063685 -0.076952845 0.032063685 0.02137579 -0.011756685 -0.0716089 -0.09512226 -0.055577055
-0.10367258 -0.04702674 -0.039545212 -0.0032063685 -0.055577055 -0.048095528 -0.079090424 -0.08336558
-0.010687895 -0.053439476 -0.036338843 -0.052370686 -0.08870953 -0.049164318 -0.032063685 -0.09512226
0.024582159 0.0 0.032063685 -0.02351337 -0.02244458 0.030994896 0.035270054 0.04275158
0.016031843 -0.027788527 -0.025650948 0.026719738 -0.084434375 0.02137579 -0.10367258 0.017100632
0.024582159 -0.058783423 0.004275158 -0.100466214 -0.030994896 -0.0010687895 -0.081228 -0.020307
-0.059852213 -0.07054011 -0.037407633 -0.008550316 0.026719738 -0.020307 0.002137579 0.038476422
-0.032063685 0.029926106 0.029926106 -0.079090424 -0.030994896 0.038476422 0.04382037 -0.084434375
0.026719738 -0.0053439476 -0.010687895 0.02137579 -0.09939742 -0.02137579 -0.0053439476 -0.059852213
00000000: 16aa dcf2 18b1 c20e a30a b9fa d929 07c2
00000010: d6c2 0bb1 06f5 b0bf c9ac c2a4 bad7 fec4
00000020: 2dc5 17a4 12b3 e6e5 aec6 dad5 b328 dba5
00000030: eae6 08de 2c03 c7e2 b8ab cebc 1f0b fff1
00000040: 0a15 f004 02ad a4e3 d717 e725 1fd0 f79f
00000050: 05cb fbb5 eddc 17a2 be27 0c08 b5b4 faf6
00000060: 1bc3 04c1 e3c6 be04 952c d9ad 0a25 efb1
00000070: bac1 05f5 2fe9 fc1c 1da3 21da 2abf f62c
00000080: a7d8 b9fe e3d3 c7d8 e5f1 11ac e5be e3f4
00000090: ea20 17c8 b6eb ec10 a9b4 02d4 ec9b a709
000000a0: fff6 ecd6 f026 e2cd 9cf3 21a2 191a ce19
000000b0: dd24 b7e9 a914 f1de 1eb8 1e14 f5bd a7cc
000000c0: 9fd4 dbfd ccd3 b6b2 f6ce decf add2 e2a7
000000d0: 1700 1eea eb1d 2128 0fe6 e819 b114 9f10
000000e0: 17c9 04a2 e3ff b4ed c8be ddf8 19ed 0224
000000f0: e21c 1cb6 e324 29b1 19fb f614 a3ec fbc8

tfl.pseudo_qconst3 i1 [64, 1, 1, 64]
-39 -58 -77 82 17 38 77 -77
67 -24 -106 -58 -125 40 13 89
4 9 26 100 86 61 69 66
-40 -95 -115 -75 15 26 -65 62
111 7 -81 92 -38 -96 -9 127
-53 -71 88 -102 -42 -116 40 48
-66 26 12 35 -72 61 52 119
65 19 117 117 67 -22 77 -107
28 39 -11 13 -113 10 68 55
-65 60 -26 96 114 24 -48 -49
-44 8 27 -127 119 -50 18 -29
-1 91 74 31 27 74 27 -53
99 -124 97 -47 -9 21 18 44
-91 -29 75 54 -12 88 -105 67
59 0 -49 93 79 112 -116 117
119 -100 -56 -29 -66 -46 -13 -94
-103 29 78 55 -74 -108 34 -18
-119 55 -23 -43 35 2 30 -68
-69 -36 -48 -76 35 -66 -25 -48
-84 -120 114 -63 -25 -25 -91 33
-14 70 -102 28 -52 -33 81 127
-62 -36 -11 19 -53 -32 19 92
34 -7 32 79 -40 96 -23 45
-34 -68 -89 28 -66 -41 -104 -16
46 -6 111 -92 -39 -12 -57 26
-47 62 31 41 -63 -98 -23 -50
64 81 79 1 57 -96 -27 99
65 -76 30 -13 -103 60 36 105
67 -81 -88 -20 -2 95 60 -73
59 50 91 16 53 -127 -68 1
-18 -71 -85 -30 70 72 -70 -106
104 -54 27 95 69 -42 -26 -21
00000000: d9c6 b352 1126 4db3 43e8 96c6 8328 0d59
00000010: 0409 1a64 563d 4542 d8a1 8db5 0f1a bf3e
00000020: 6f07 af5c daa0 f77f cbb9 589a d68c 2830
00000030: be1a 0c23 b83d 3477 4113 7575 43ea 4d95
00000040: 1c27 f50d 8f0a 4437 bf3c e660 7218 d0cf
00000050: d408 1b81 77ce 12e3 ff5b 4a1f 1b4a 1bcb
00000060: 6384 61d1 f715 122c a5e3 4b36 f458 9743
00000070: 3b00 cf5d 4f70 8c75 779c c8e3 bed2 f3a2
00000080: 991d 4e37 b694 22ee 8937 e9d5 2302 1ebc
00000090: bbdc d0b4 23be e7d0 ac88 72c1 e7e7 a521
000000a0: f246 9a1c ccdf 517f c2dc f513 cbe0 135c
000000b0: 22f9 204f d860 e92d debc a71c bed7 98f0
000000c0: 2efa 6fa4 d9f4 c71a d13e 1f29 c19e e9ce
000000d0: 4051 4f01 39a0 e563 41b4 1ef3 993c 2469
000000e0: 43af a8ec fe5f 3cb7 3b32 5b10 3581 bc01
000000f0: eeb9 abe2 4648 ba96 68ca 1b5f 45d6 e6eb

tfl.pseudo_qconst5 i1 [1, 23, 1, 64]
-69 -34 127 12 -85 -74 86 -85
-54 127 -14 -16 115 -95 53 0
57 -11 -50 -19 98 -127 -82 34
-127 -48 61 -4 28 10 -33 36
35 9 66 19 1 -4 -55 21
-25 27 75 -32 -11 90 -49 14
4 51 6 71 -11 -47 125 32
-35 -61 -46 -127 16 7 11 11
-66 -20 22 -59 59 23 64 -44
-44 -11 127 -2 96 -112 3 17
66 -54 -127 -35 78 -3 -47 46
-34 78 11 127 127 -97 -18 -69
123 41 -27 -1 26 108 -76 85
49 54 -38 -107 127 70 59 53
-32 43 87 -29 -10 1 127 -7
-106 -57 -12 -49 27 -66 63 76
62 -34 -17 -21 -44 55 33 -96
-4 93 9 11 122 -66 -116 -30
-13 86 20 86 -46 -69 -96 49
-44 51 -23 -23 72 56 44 -47
38 7 -127 -14 55 127 52 -19
-49 -70 -91 -94 -54 -26 8 -9
-31 -97 -13 0 29 -38 41 -97
24 -29 -69 53 -57 50 30 94
-14 -48 -95 -2 -19 -24 67 -79
-50 65 8 31 54 -3 -51 -25
-3 108 -80 -2 59 -2 52 6
-66 93 1 12 -29 41 -6 67
-20 78 2 -102 -4 -22 -45 16
-50 -86 -56 -2 -85 31 69 -6
38 72 37 -76 81 1 -40 34
61 -15 30 -21 -127 33 37 11
00000000: bbde 7f0c abb6 56ab ca7f f2f0 73a1 3500
00000010: 39f5 ceed 6281 ae22 81d0 3dfc 1c0a df24
00000020: 2309 4213 01fc c915 e71b 4be0 f55a cf0e
00000030: 0433 0647 f5d1 7d20 ddc3 d281 1007 0b0b
00000040: beec 16c5 3b17 40d4 d4f5 7ffe 6090 0311
00000050: 42ca 81dd 4efd d12e de4e 0b7f 7f9f eebb
00000060: 7b29 e5ff 1a6c b455 3136 da95 7f46 3b35
00000070: e02b 57e3 f601 7ff9 96c7 f4cf 1bbe 3f4c
00000080: 3ede efeb d437 21a0 fc5d 090b 7abe 8ce2
00000090: f356 1456 d2bb a031 d433 e9e9 4838 2cd1
000000a0: 2607 81f2 377f 34ed cfba a5a2 cae6 08f7
000000b0: e19f f300 1dda 299f 18e3 bb35 c732 1e5e
000000c0: f2d0 a1fe ede8 43b1 ce41 081f 36fd cde7
000000d0: fd6c b0fe 3bfe 3406 be5d 010c e329 fa43
000000e0: ec4e 029a fcea d310 ceaa c8fe ab1f 45fa
000000f0: 2648 25b4 5101 d822 3df1 1eeb 8121 250b

tfl.pseudo_qconst7 i1 [64, 1, 1, 64]
-77 118 -16 -18 -53 110 95 91
89 -28 29 -78 -127 -123 -55 89
-86 13 -50 7 -107 -90 -45 -88
-27 73 104 12 113 23 -120 39
108 72 66 -67 -87 76 98 71
118 72 -85 -6 -34 -66 -104 -27
-12 -52 -119 32 47 17 -45 87
107 -77 67 83 32 -50 -35 57
-5 -120 -10 -17 48 20 21 66
15 -70 24 -9 7 -26 79 18
48 -59 99 -81 4 17 103 52
-73 55 -60 112 79 25 1 -79
-36 112 19 116 17 27 -46 54
-67 -93 98 -16 60 -82 44 -31
74 28 -83 -25 -35 102 127 -10
-39 66 11 -35 -81 -90 19 -34
-10 -37 33 -79 -13 12 18 -22
-77 -48 -116 36 76 -34 83 -88
-64 57 35 -82 -72 83 42 -98
-100 33 -41 -10 3 58 -83 -64
96 16 -90 -48 9 -50 28 -127
50 -22 77 -96 27 -110 88 -30
67 -66 -5 -98 -83 -100 -50 -63
-46 76 4 -82 88 21 -88 92
17 -27 -18 -13 -80 65 46 -62
59 -21 69 -5 -17 -89 -85 97
-4 28 19 15 12 127 103 -23
37 -48 73 -40 42 64 80 -74
45 16 82 81 -44 50 58 91
21 -82 82 -41 24 49 46 -33
-67 -40 58 80 -13 82 17 -69
28 96 -32 -90 82 -19 62 -84
00000000: b376 f0ee cb6e 5f5b 59e4 1db2 8185 c959
00000010: aa0d ce07 95a6 d3a8 e549 680c 7117 8827
00000020: 6c48 42bd a94c 6247 7648 abfa debe 98e5
00000030: f4cc 8920 2f11 d357 6bb3 4353 20ce dd39
00000040: fb88 f6ef 3014 1542 0fba 18f7 07e6 4f12
00000050: 30c5 63af 0411 6734 b737 c470 4f19 01b1
00000060: dc70 1374 111b d236 bda3 62f0 3cae 2ce1
00000070: 4a1c ade7 dd66 7ff6 d942 0bdd afa6 13de
00000080: f6db 21b1 f30c 12ea b3d0 8c24 4cde 53a8
00000090: c039 23ae b853 2a9e 9c21 d7f6 033a adc0
000000a0: 6010 a6d0 09ce 1c81 32ea 4da0 1b92 58e2
000000b0: 43be fb9e ad9c cec1 d24c 04ae 5815 a85c
000000c0: 11e5 eef3 b041 2ec2 3beb 45fb efa7 ab61
000000d0: fc1c 130f 0c7f 67e9 25d0 49d8 2a40 50b6
000000e0: 2d10 5251 d432 3a5b 15ae 52d7 1831 2edf
000000f0: bdd8 3a50 f352 11bb 1c60 e0a6 52ed 3eac

tfl.pseudo_qconst9 i1 [1, 15, 1, 32]
-10 -28 -15 -72 -60 35 7 68
47 -77 -44 -6 82 -127 126 -88
-115 -73 21 45 88 -41 43 66
-16 -47 28 -125 -8 -79 3 -105
-50 -127 64 93 63 56 -51 75
46 127 100 102 80 3 96 -94
-33 -41 -47 -71 127 40 -111 97
-127 -37 19 64 40 20 -53 74
-60 -49 68 42 127 42 7 1
116 -12 27 127 -28 87 -87 55
-79 -108 -52 73 -73 127 59 83
90 -17 -45 -124 -28 -56 -126 -9
-14 93 27 83 14 -64 108 15
94 -60 -2 39 11 69 32 0
-73 69 -59 69 -61 118 -13 -39
-65 -20 24 38 -21 22 -31 -127
80 21 -31 26 62 80 -58 -93
-1 67 45 71 90 -13 -127 -73
-82 -39 -40 63 0 -67 30 87
9 -36 44 -37 50 5 -14 37
-127 26 68 -95 -28 42 73 22
-13 -83 64 55 -31 -17 30 -32
-45 127 -2 54 -37 33 100 -14
-101 92 71 76 -24 112 -113 13
63 -29 -41 62 -73 -26 -31 109
16 26 -51 -118 -4 61 -9 -21
127 79 27 89 -103 86 22 27
98 94 -77 52 10 -29 9 82
-33 -120 -127 16 -36 -23 -13 42
-59 66 127 -25 -97 -65 27 -127
42 49 30 119 -17 90 114 -127
-125 -44 -16 -40 30 84 4 26
00000000: f6e4 f1b8 c423 0744 2fb3 d4fa 5281 7ea8
00000010: 8db7 152d 58d7 2b42 f0d1 1c83 f8b1 0397
00000020: ce81 405d 3f38 cd4b 2e7f 6466 5003 60a2
00000030: dfd7 d1b9 7f28 9161 81db 1340 2814 cb4a
00000040: c4cf 442a 7f2a 0701 74f4 1b7f e457 a937
00000050: b194 cc49 b77f 3b53 5aef d384 e4c8 82f7
00000060: f25d 1b53 0ec0 6c0f 5ec4 fe27 0b45 2000
00000070: b745 c545 c376 f3d9 bfec 1826 eb16 e181
00000080: 5015 e11a 3e50 c6a3 ff43 2d47 5af3 81b7
00000090: aed9 d83f 00bd 1e57 09dc 2cdb 3205 f225
000000a0: 811a 44a1 e42a 4916 f3ad 4037 e1ef 1ee0
000000b0: d37f fe36 db21 64f2 9b5c 474c e870 8f0d
000000c0: 3fe3 d73e b7e6 e16d 101a cd8a fc3d f7eb
000000d0: 7f4f 1b59 9956 161b 625e b334 0ae3 0952
000000e0: df88 8110 dce9 f32a c542 7fe7 9fbf 1b81
000000f0: 2a31 1e77 ef5a 7281 83d4 f0d8 1e54 041a

tfl.pseudo_qconst11 i1 [1, 9, 1, 32]
29 -94 62 26 90 -45 1 20
100 -27 -86 -66 25 -76 7 -70
63 -66 -25 -115 -78 71 106 61
-48 2 127 -33 -61 23 21 90
15 121 52 64 -51 33 -6 127
71 -34 -59 -23 -43 83 -39 10
-10 -90 79 56 -112 -15 127 85
-78 127 -45 71 32 -12 105 16
-50 68 -30 46 -111 -100 -99 -97
-72 22 -69 9 67 -102 127 37
66 23 78 -115 34 -84 31 -55
-34 -75 113 -70 -127 -39 17 44
-15 -127 -121 -127 -42 47 10 1
65 3 -96 127 -64 -61 12 127
74 81 -127 56 -127 120 -8 62
-11 20 -45 63 55 51 -41 127
14 0 67 9 -21 -81 92 83
-11 64 28 -43 -48 26 -122 -114
68 127 51 -59 -66 92 8 -127
66 67 13 -91 44 58 -113 -82
41 -115 127 -84 41 65 127 67
-118 -127 -127 -41 -127 127 39 122
-20 -41 -121 42 -19 127 -34 -112
-3 99 -4 -1 65 -127 67 124
123 -124 73 -73 47 90 94 -48
-127 -98 -112 48 -41 123 -86 -117
-85 94 -120 -19 -77 49 -8 82
-10 -81 -112 109 -10 -25 -127 -54
127 74 39 91 104 -58 -32 -97
-119 49 -116 88 -34 103 -33 -10
-19 13 -50 45 53 96 -91 56
127 -8 55 -60 24 -73 68 61
00000000: 1da2 3e1a 5ad3 0114 64e5 aabe 19b4 07ba
00000010: 3fbe e78d b247 6a3d d002 7fdf c317 155a
00000020: 0f79 3440 cd21 fa7f 47de c5e9 d553 d90a
00000030: f6a6 4f38 90f1 7f55 b27f d347 20f4 6910
00000040: ce44 e22e 919c 9d9f b816 bb09 439a 7f25
00000050: 4217 4e8d 22ac 1fc9 deb5 71ba 81d9 112c
00000060: f181 8781 d62f 0a01 4103 a07f c0c3 0c7f
00000070: 4a51 8138 8178 f83e f514 d33f 3733 d77f
00000080: 0e00 4309 ebaf 5c53 f540 1cd5 d01a 868e
00000090: 447f 33c5 be5c 0881 4243 0da5 2c3a 8fae
000000a0: 298d 7fac 2941 7f43 8a81 81d7 817f 277a
000000b0: ecd7 872a ed7f de90 fd63 fcff 4181 437c
000000c0: 7b84 49b7 2f5a 5ed0 819e 9030 d77b aa8b
000000d0: ab5e 88ed b331 f852 f6af 906d f6e7 81ca
000000e0: 7f4a 275b 68c6 e09f 8931 8c58 de67 dff6
000000f0: ed0d ce2d 3560 a538 7ff8 37c4 18b7 443d

tfl.pseudo_qconst13 i1 [64, 1, 1, 64]
-61 85 -7 -60 61 -42 -76 -14
-50 77 -41 68 6 3 24 -14
76 -25 -56 -22 -88 102 -127 79
-72 67 78 -78 38 42 -41 45
-38 37 -61 70 11 -55 54 30
-42 3 -102 -103 0 28 28 30
-18 3 6 -27 -49 -70 33 -11
-50 -33 -90 46 -86 1 8 62
30 100 58 -92 -82 -27 -46 98
-58 73 -13 116 -118 -57 89 62
36 -7 -21 -88 -127 103 -114 100
-38 53 -23 46 96 -114 -6 -56
63 -74 -74 -69 -107 39 16 -47
-95 36 -77 -107 -21 50 -15 -102
47 4 38 79 -48 90 -9 -53
-61 -96 -17 68 14 59 0 100
78 70 0 107 52 -18 29 71
-60 20 -45 2 -72 -96 -2 -43
71 -80 -14 32 -26 25 -84 -97
23 -45 74 -99 -75 59 24 -72
48 95 34 -74 52 -13 -6 -34
2 -75 -101 93 -42 0 32 33
24 -50 4 19 64 40 109 49
20 41 45 19 127 -66 -14 -55
-40 13 63 19 -124 50 87 -32
103 78 90 49 51 -92 86 96
-14 67 58 -71 16 -112 49 -16
-53 15 44 -96 110 -101 -81 -88
-70 -3 92 -96 57 48 100 -109
83 -81 -4 36 -111 41 49 -111
-118 77 -96 56 41 82 -58 -25
89 -103 22 -127 -13 39 -51 -96
00000000: c355 f9c4 3dd6 b4f2 ce4d d744 0603 18f2
00000010: 4ce7 c8ea a866 814f b843 4eb2 262a d72d
00000020: da25 c346 0bc9 361e d603 9a99 001c 1c1e
00000030: ee03 06e5 cfba 21f5 cedf a62e aa01 083e
00000040: 1e64 3aa4 aee5 d262 c649 f374 8ac7 593e
00000050: 24f9 eba8 8167 8e64 da35 e92e 608e fac8
00000060: 3fb6 b6bb 9527 10d1 a124 b395 eb32 f19a
00000070: 2f04 264f d05a f7cb c3a0 ef44 0e3b 0064
00000080: 4e46 006b 34ee 1d47 c414 d302 b8a0 fed5
00000090: 47b0 f220 e619 ac9f 17d3 4a9d b53b 18b8
000000a0: 305f 22b6 34f3 fade 02b5 9b5d d600 2021
000000b0: 18ce 0413 4028 6d31 1429 2d13 7fbe f2c9
000000c0: d80d 3f13 8432 57e0 674e 5a31 33a4 5660
000000d0: f243 3ab9 1090 31f0 cb0f 2ca0 6e9b afa8
000000e0: bafd 5ca0 3930 6493 53af fc24 9129 3191
000000f0: 8a4d a038 2952 c6e7 5999 1681 f327 cda0

tfl.pseudo_qconst15 i1 [1, 7, 1, 32]
105 -36 102 -38 -26 113 -80 -29
22 18 -34 75 95 91 -3 -29
62 -12 -2 -62 60 -37 70 -51
-127 37 19 28 -58 -79 -127 2
-22 8 47 -19 94 113 -27 123
-64 -23 107 12 -67 -127 23 82
97 25 -28 -62 -17 -14 97 -127
4 59 -60 -127 25 -86 71 -127
-118 -51 85 -95 -81 73 -61 -121
-66 -62 -117 54 -127 41 53 -46
117 -84 -117 53 116 -122 -28 66
69 37 -65 -8 84 -52 75 73
-28 115 -127 -27 -4 -24 -43 106
-38 -79 -127 12 -38 -59 91 -76
-30 9 -96 -13 72 -33 -127 85
53 -127 -60 67 64 -81 -57 22
-127 127 -39 -127 -127 22 -89 -127
41 127 -3 -127 65 -111 127 -19
-113 -15 127 127 -89 -11 -26 -43
-48 -111 127 -27 118 -42 10 14
-55 -106 -20 -38 48 -96 14 -113
127 -102 -73 -30 85 -115 -58 70
127 127 -121 105 -111 -40 -33 79
-14 -67 71 126 127 -57 85 110
22 -16 94 93 25 -127 -127 -17
-6 -1 26 97 -13 63 -52 -127
4 96 3 12 127 127 5 -67
60 -16 -41 17 -51 127 38 -51
00000000: 69dc 66da e671 b0e3 1612 de4b 5f5b fde3
00000010: 3ef4 fec2 3cdb 46cd 8125 131c c6b1 8102
00000020: ea08 2fed 5e71 e57b c0e9 6b0c bd81 1752
00000030: 6119 e4c2 eff2 6181 043b c481 19aa 4781
00000040: 8acd 55a1 af49 c387 bec2 8b36 8129 35d2
00000050: 75ac 8b35 7486 e442 4525 bff8 54cc 4b49
00000060: e473 81e5 fce8 d56a dab1 810c dac5 5bb4
00000070: e209 a0f3 48df 8155 3581 c443 40af c716
00000080: 817f d981 8116 a781 297f fd81 4191 7fed
00000090: 8ff1 7f7f a7f5 e6d5 d091 7fe5 76d6 0a0e
000000a0: c996 ecda 30a0 0e8f 7f9a b7e2 558d c646
000000b0: 7f7f 8769 91d8 df4f f2bd 477e 7fc7 556e
000000c0: 16f0 5e5d 1981 81ef faff 1a61 f33f cc81
000000d0: 0460 030c 7f7f 05bd 3cf0 d711 cd7f 26cd

tfl.pseudo_qconst17 i1 [1, 11, 1, 32]
-24 80 -127 -98 60 21 -123 50
-127 31 -98 91 -91 113 -100 79
-14 53 -5 124 120 39 67 -75
-53 -11 97 -9 -36 69 120 -57
105 127 -7 67 -59 -98 -20 -92
-49 14 -32 -60 -36 -10 -21 55
-66 94 62 -27 33 127 -68 27
13 -54 48 58 -40 120 -17 127
127 93 22 -49 -114 -86 -24 -84
33 -58 58 -69 32 92 -87 -69
-52 104 -62 49 124 123 -34 -37
-12 32 -97 30 44 -77 -102 -34
107 -66 42 4 -100 94 -60 112
-92 -127 -37 91 87 86 69 37
-38 -55 -13 36 88 -17 -127 23
7 -79 -39 -39 -62 -46 -98 112
58 65 96 71 -21 59 16 -68
-91 43 -1 -28 95 30 -60 127
-21 -34 -98 -43 29 7 43 20
4 76 -39 -61 -32 98 -116 47
30 -1 -54 -9 -81 -34 104 -79
109 -94 -4 127 45 -33 -42 78
24 -127 -88 3 127 44 58 67
18 52 -4 32 -46 97 -55 -23
6 -5 3 -89 -24 34 79 96
-4 26 -61 -52 127 -78 40 -30
-81 -35 -51 -55 52 -72 -58 53
120 -127 127 -57 8 -125 -77 -66
17 19 81 -127 -64 86 127 40
3 -65 -127 88 46 63 20 -98
-88 35 -44 -52 3 35 7 46
29 -45 -42 -124 63 23 10 100
00000000: e850 819e 3c15 8532 811f 9e5b a571 9c4f
00000010: f235 fb7c 7827 43b5 cbf5 61f7 dc45 78c7
00000020: 697f f943 c59e eca4 cf0e e0c4 dcf6 eb37
00000030: be5e 3ee5 217f bc1b 0dca 303a d878 ef7f
00000040: 7f5d 16cf 8eaa e8ac 21c6 3abb 205c a9bb
00000050: cc68 c231 7c7b dedb f420 9f1e 2cb3 9ade
00000060: 6bbe 2a04 9c5e c470 a481 db5b 5756 4525
00000070: dac9 f324 58ef 8117 07b1 d9d9 c2d2 9e70
00000080: 3a41 6047 eb3b 10bc a52b ffe4 5f1e c47f
00000090: ebde 9ed5 1d07 2b14 044c d9c3 e062 8c2f
000000a0: 1eff caf7 afde 68b1 6da2 fc7f 2ddf d64e
000000b0: 1881 a803 7f2c 3a43 1234 fc20 d261 c9e9
000000c0: 06fb 03a7 e822 4f60 fc1a c3cc 7fb2 28e2
000000d0: afdd cdc9 34b8 c635 7881 7fc7 0883 b3be
000000e0: 1113 5181 c056 7f28 03bf 8158 2e3f 149e
000000f0: a823 d4cc 0323 072e 1dd3 d684 3f17 0a64

tfl.pseudo_qconst19 i1 [64, 1, 1, 32]
-9 64 22 -39 87 -5 -43 -61
-3 -52 73 -35 -64 55 -22 65
-37 -121 -98 26 27 -74 -71 39
49 93 94 -10 -127 -109 -21 47
-84 55 40 46 -77 -36 27 -63
112 78 101 87 -127 48 -35 39
-7 -95 94 48 33 -5 24 -21
44 55 122 -20 37 69 9 47
-54 -64 -34 -65 -32 17 -72 -20
37 -84 -31 100 -35 84 77 32
45 -5 -62 23 48 -68 -78 35
-51 14 127 19 64 41 52 -73
3 -5 41 14 127 3 -47 -8
-91 99 -33 -26 -56 -43 -85 -21
-87 59 86 27 36 -59 -112 73
-97 -68 3 92 107 73 -36 53
-100 99 8 -60 -34 -90 -69 -97
98 127 -31 -49 20 -60 -21 -21
70 76 -7 47 3 80 -69 -79
-80 -98 49 96 67 -28 77 -108
81 99 80 37 -70 30 74 45
-34 3 100 -32 -100 -109 104 110
69 79 71 31 76 77 -14 -6
-21 -127 56 -10 27 32 106 15
42 25 -26 -68 -98 -76 4 -38
-82 27 -114 25 -83 40 -40 53
-102 72 -127 -13 53 30 9 -77
-12 -17 -35 -59 -14 -14 33 -105
-8 -101 -83 81 38 -26 -3 102
38 -59 69 -25 98 83 48 -14
-38 20 -33 -127 48 51 -93 57
8 7 17 32 -44 40 92 76
00000000: f740 16d9 57fb d5c3 fdcc 49dd c037 ea41
00000010: db87 9e1a 1bb6 b927 315d 5ef6 8193 eb2f
00000020: ac37 282e b3dc 1bc1 704e 6557 8130 dd27
00000030: f9a1 5e30 21fb 18eb 2c37 7aec 2545 092f
00000040: cac0 debf e011 b8ec 25ac e164 dd54 4d20
00000050: 2dfb c217 30bc b223 cd0e 7f13 4029 34b7
00000060: 03fb 290e 7f03 d1f8 a563 dfe6 c8d5 abeb
00000070: a93b 561b 24c5 9049 9fbc 035c 6b49 dc35
00000080: 9c63 08c4 dea6 bb9f 627f e1cf 14c4 ebeb
00000090: 464c f92f 0350 bbb1 b09e 3160 43e4 4d94
000000a0: 5163 5025 ba1e 4a2d de03 64e0 9c93 686e
000000b0: 454f 471f 4c4d f2fa eb81 38f6 1b20 6a0f
000000c0: 2a19 e6bc 9eb4 04da ae1b 8e19 ad28 d835
000000d0: 9a48 81f3 351e 09b3 f4ef ddc5 f2f2 2197
000000e0: f89b ad51 26e6 fd66 26c5 45e7 6253 30f2
000000f0: da14 df81 3033 a339 0807 1120 d428 5c4c

tfl.pseudo_qconst21 i1 [1, 5, 1, 32]
-47 51 -109 127 75 -36 52 -127
25 112 -126 6 3 92 -94 -47
-4 -37 -119 58 85 89 -123 -127
-114 -120 -22 0 39 93 -127 104
-53 -106 -36 91 -85 -1 0 -30
77 60 87 -95 16 -95 126 99
-40 -127 127 -7 14 45 127 -44
-23 127 50 72 -74 127 -60 22
58 -109 127 20 -1 -54 -72 44
-127 65 72 52 -44 -127 -127 83
-27 -2 -3 82 -127 127 -59 -2
127 -118 127 127 -27 109 82 127
-105 -127 -17 26 -30 -36 -87 54
92 -127 43 -127 127 -38 31 35
-63 31 38 78 1 120 109 -30
91 -127 -77 -3 -51 -116 -16 57
127 -7 58 -104 127 -127 127 -80
-37 -117 -127 61 -122 -11 4 -127
-127 84 -78 -127 98 107 -49 118
86 120 -85 52 127 -28 55 -105
00000000: d133 937f 4bdc 3481 1970 8206 035c a2d1
00000010: fcdb 893a 5559 8581 8e88 ea00 275d 8168
00000020: cb96 dc5b abff 00e2 4d3c 57a1 10a1 7e63
00000030: d881 7ff9 0e2d 7fd4 e97f 3248 b67f c416
00000040: 3a93 7f14 ffca b82c 8141 4834 d481 8153
00000050: e5fe fd52 817f c5fe 7f8a 7f7f e56d 527f
00000060: 9781 ef1a e2dc a936 5c81 2b81 7fda 1f23
00000070: c11f 264e 0178 6de2 5b81 b3fd cd8c f039
00000080: 7ff9 3a98 7f81 7fb0 db8b 813d 86f5 0481
00000090: 8154 b281 626b cf76 5678 ab34 7fe4 3797

tfl.pseudo_qconst23 i1 [32, 5, 1, 40]
-27 -22 -69 28 50 0 65 51
-49 56 -60 -66 58 70 22 -30
93 -7 53 -50 -87 -98 73 26
4 -81 -106 44 -33 -30 9 -93
8 -112 -76 -39 -85 -127 74 -18
60 74 -27 -59 -28 52 -42 91
-55 -108 39 -14 63 -30 -4 59
0 -47 -90 -81 -69 -20 101 -61
-16 106 24 -9 -36 30 8 -35
30 78 60 -95 -78 -4 25 -76
-97 -25 -4 -53 -51 58 12 89
16 -56 44 -49 12 -87 -101 73
43 92 79 42 -104 -22 8 -61
19 125 -100 -34 -84 6 -1 20
-31 -23 9 -76 7 -110 51 -119
60 -44 12 -111 -45 51 75 -30
42 39 -103 31 65 40 -30 -80
94 -56 -78 106 -9 56 54 -10
-26 62 43 -111 -16 -6 82 68
-120 -76 6 56 -35 42 17 -69
33 -89 117 5 -121 -74 66 66
1 45 -47 3 87 -73 -92 -40
30 59 78 90 25 33 -43 -5
49 92 -50 -41 59 -9 -25 -5
7 40 -112 -89 -20 97 -90 19
-3 10 -88 -50 38 18 67 58
33 -85 -70 54 35 4 -35 120
39 97 28 7 55 46 8 27
54 45 -16 53 61 -50 -13 -9
11 30 31 85 37 -47 -35 -48
-85 89 -54 -44 -4 -22 72 -70
-62 0 21 25 43 4 4 1
00000000: e5ea bb1c 3200 4133 cf38 c4be 3a46 16e2
00000010: 5df9 35ce a99e 491a 04af 962c dfe2 09a3
00000020: 0890 b4d9 ab81 4aee 3c4a e5c5 e434 d65b
00000030: c994 27f2 3fe2 fc3b 00d1 a6af bbec 65c3
00000040: f06a 18f7 dc1e 08dd 1e4e 3ca1 b2fc 19b4
00000050: 9fe7 fccb cd3a 0c59 10c8 2ccf 0ca9 9b49
00000060: 2b5c 4f2a 98ea 08c3 137d 9cde ac06 ff14
00000070: e1e9 09b4 0792 3389 3cd4 0c91 d333 4be2
00000080: 2a27 991f 4128 e2b0 5ec8 b26a f738 36f6
00000090: e63e 2b91 f0fa 5244 88b4 0638 dd2a 11bb
000000a0: 21a7 7505 87b6 4242 012d d103 57b7 a4d8
000000b0: 1e3b 4e5a 1921 d5fb 315c ced7 3bf7 e7fb
000000c0: 0728 90a7 ec61 a613 fd0a a8ce 2612 433a
000000d0: 21ab ba36 2304 dd78 2761 1c07 372e 081b
000000e0: 362d f035 3dce f3f7 0b1e 1f55 25d1 ddd0
000000f0: ab59 cad4 fcea 48ba c200 1519 2b04 0401

tfl.pseudo_qconst24 i1 [1, 2, 1, 40] scale=0.101960786 zero_point=-128
0.0 0.0 0.0 0.0 0.0 0.0 0.0 0.0
0.0 0.0 0.0 0.0 0.0 0.0 0.0 0.0
0.0 0.0 0.0 0.0 0.0 0.0 0.0 0.0
0.0 0.0 0.0 0.0 0.0 0.0 0.0 0.0
0.0 0.0 0.0 0.0 0.0 0.0 0.0 0.0
0.0 0.0 0.0 0.0 0.0 0.0 0.0 0.0
0.0 0.0 0.0 0.0 0.0 0.0 0.0 0.0
0.0 0.0 0.0 0.0 0.0 0.0 0.0 0.0
0.0 0.0 0.0 0.0 0.0 0.0 0.0 0.0
0.0 0.0 0.0 0.0 0.0 0.0 0.0 0.0
00000000: 8080 8080 8080 8080 8080 8080 8080 8080
00000010: 8080 8080 8080 8080 8080 8080 8080 8080
00000020: 8080 8080 8080 8080 8080 8080 8080 8080
00000030: 8080 8080 8080 8080 8080 8080 8080 8080
00000040: 8080 8080 8080 8080 8080 8080 8080 8080

tfl.pseudo_qconst25 i1 [1, 4, 1, 32] scale=0.32005215 zero_point=-128
0.0 0.0 0.0 0.0 0.0 0.0 0.0 0.0
0.0 0.0 0.0 0.0 0.0 0.0 0.0 0.0
0.0 0.0 0.0 0.0 0.0 0.0 0.0 0.0
0.0 0.0 0.0 0.0 0.0 0.0 0.0 0.0
0.0 0.0 0.0 0.0 0.0 0.0 0.0 0.0
0.0 0.0 0.0 0.0 0.0 0.0 0.0 0.0
0.0 0.0 0.0 0.0 0.0 0.0 0.0 0.0
0.0 0.0 0.0 0.0 0.0 0.0 0.0 0.0
0.0 0.0 0.0 0.0 0.0 0.0 0.0 0.0
0.0 0.0 0.0 0.0 0.0 0.0 0.0 0.0
0.0 0.0 0.0 0.0 0.0 0.0 0.0 0.0
0.0 0.0 0.0 0.0 0.0 0.0 0.0 0.0
0.0 0.0 0.0 0.0 0.0 0.0 0.0 0.0
0.0 0.0 0.0 0.0 0.0 0.0 0.0 0.0
0.0 0.0 0.0 0.0 0.0 0.0 0.0 0.0
0.0 0.0 0.0 0.0 0.0 0.0 0.0 0.0
00000000: 8080 8080 8080 8080 8080 8080 8080 8080
00000010: 8080 8080 8080 8080 8080 8080 8080 8080
00000020: 8080 8080 8080 8080 8080 8080 8080 8080
00000030: 8080 8080 8080 8080 8080 8080 8080 8080
00000040: 8080 8080 8080 8080 8080 8080 8080 8080
00000050: 8080 8080 8080 8080 8080 8080 8080 8080
00000060: 8080 8080 8080 8080 8080 8080 8080 8080
00000070: 8080 8080 8080 8080 8080 8080 8080 8080

tfl.pseudo_qconst26 i1 [1, 10, 1, 64] scale=0.036962677 zero_point=-128
0.0 0.0 0.0 0.0 0.0 0.0 0.0 0.0
0.0 0.0 0.0 0.0 0.0 0.0 0.0 0.0
0.0 0.0 0.0 0.0 0.0 0.0 0.0 0.0
0.0 0.0 0.0 0.0 0.0 0.0 0.0 0.0
0.0 0.0 0.0 0.0 0.0 0.0 0.0 0.0
0.0 0.0 0.0 0.0 0.0 0.0 0.0 0.0
0.0 0.0 0.0 0.0 0.0 0.0 0.0 0.0
0.0 0.0 0.0 0.0 0.0 0.0 0.0 0.0
0.0 0.0 0.0 0.0 0.0 0.0 0.0 0.0
0.0 0.0 0.0 0.0 0.0 0.0 0.0 0.0
0.0 0.0 0.0 0.0 0.0 0.0 0.0 0.0
0.0 0.0 0.0 0.0 0.0 0.0 0.0 0.0
0.0 0.0 0.0 0.0 0.0 0.0 0.0 0.0
0.0 0.0 0.0 0.0 0.0 0.0 0.0 0.0
0.0 0.0 0.0 0.0 0.0 0.0 0.0 0.0
0.0 0.0 0.0 0.0 0.0 0.0 0.0 0.0
0.0 0.0 0.0 0.0 0.0 0.0 0.0 0.0
0.0 0.0 0.0 0.0 0.0 0.0 0.0 0.0
0.0 0.0 0.0 0.0 0.0 0.0 0.0 0.0
0.0 0.0 0.0 0.0 0.0 0.0 0.0 0.0
0.0 0.0 0.0 0.0 0.0 0.0 0.0 0.0
0.0 0.0 0.0 0.0 0.0 0.0 0.0 0.0
0.0 0.0 0.0 0.0 0.0 0.0 0.0 0.0
0.0 0.0 0.0 0.0 0.0 0.0 0.0 0.0
0.0 0.0 0.0 0.0 0.0 0.0 0.0 0.0
0.0 0.0 0.0 0.0 0.0 0.0 0.0 0.0
0.0 0.0 0.0 0.0 0.0 0.0 0.0 0.0
0.0 0.0 0.0 0.0 0.0 0.0 0.0 0.0
0.0 0.0 0.0 0.0 0.0 0.0 0.0 0.0
0.0 0.0 0.0 0.0 0.0 0.0 0.0 0.0
0.0 0.0 0.0 0.0 0.0 0.0 0.0 0.0
0.0 0.0 0.0 0.0 0.0 0.0 0.0 0.0
00000000: 8080 8080 8080 8080 8080 8080 8080 8080
00000010: 8080 8080 8080 8080 8080 8080 8080 8080
00000020: 8080 8080 8080 8080 8080 8080 8080 8080
00000030: 8080 8080 8080 8080 8080 8080 8080 8080
00000040: 8080 8080 8080 8080 8080 8080 8080 8080
00000050: 8080 8080 8080 8080 8080 8080 8080 8080
00000060: 8080 8080 8080 8080 8080 8080 8080 8080
00000070: 8080 8080 8080 8080 8080 8080 8080 8080
00000080: 8080 8080 8080 8080 8080 8080 8080 8080
00000090: 8080 8080 8080 8080 8080 8080 8080 8080
000000a0: 8080 8080 8080 8080 8080 8080 8080 8080
000000b0: 8080 8080 8080 8080 8080 8080 8080 8080
000000c0: 8080 8080 8080 8080 8080 8080 8080 8080
000000d0: 8080 8080 8080 8080 8080 8080 8080 8080
000000e0: 8080 8080 8080 8080 8080 8080 8080 8080
000000f0: 8080 8080 8080 8080 8080 8080 8080 8080

tfl.pseudo_qconst27 i1 [1, 14, 1, 64] scale=0.04148699 zero_point=-128
0.0 0.0 0.0 0.0 0.0 0.0 0.0 0.0
0.0 0.0 0.0 0.0 0.0 0.0 0.0 0.0
0.0 0.0 0.0 0.0 0.0 0.0 0.0 0.0
0.0 0.0 0.0 0.0 0.0 0.0 0.0 0.0
0.0 0.0 0.0 0.0 0.0 0.0 0.0 0.0
0.0 0.0 0.0 0.0 0.0 0.0 0.0 0.0
0.0 0.0 0.0 0.0 0.0 0.0 0.0 0.0
0.0 0.0 0.0 0.0 0.0 0.0 0.0 0.0
0.0 0.0 0.0 0.0 0.0 0.0 0.0 0.0
0.0 0.0 0.0 0.0 0.0 0.0 0.0 0.0
0.0 0.0 0.0 0.0 0.0 0.0 0.0 0.0
0.0 0.0 0.0 0.0 0.0 0.0 0.0 0.0
0.0 0.0 0.0 0.0 0.0 0.0 0.0 0.0
0.0 0.0 0.0 0.0 0.0 0.0 0.0 0.0
0.0 0.0 0.0 0.0 0.0 0.0 0.0 0.0
0.0 0.0 0.0 0.0 0.0 0.0 0.0 0.0
0.0 0.0 0.0 0.0 0.0 0.0 0.0 0.0
0.0 0.0 0.0 0.0 0.0 0.0 0.0 0.0
0.0 0.0 0.0 0.0 0.0 0.0 0.0 0.0
0.0 0.0 0.0 0.0 0.0 0.0 0.0 0.0
0.0 0.0 0.0 0.0 0.0 0.0 0.0 0.0
0.0 0.0 0.0 0.0 0.0 0.0 0.0 0.0
0.0 0.0 0.0 0.0 0.0 0.0 0.0 0.0
0.0 0.0 0.0 0.0 0.0 0.0 0.0 0.0
0.0 0.0 0.0 0.0 0.0 0.0 0.0 0.0
0.0 0.0 0.0 0.0 0.0 0.0 0.0 0.0
0.0 0.0 0.0 0.0 0.0 0.0 0.0 0.0
0.0 0.0 0.0 0.0 0.0 0.0 0.0 0.0
0.0 0.0 0.0 0.0 0.0 0.0 0.0 0.0
0.0 0.0 0.0 0.0 0.0 0.0 0.0 0.0
0.0 0.0 0.0 0.0 0.0 0.0 0.0 0.0
0.0 0.0 0.0 0.0 0.0 0.0 0.0 0.0
00000000: 8080 8080 8080 8080 8080 8080 8080 8080
00000010: 8080 8080 8080 8080 8080 8080 8080 8080
00000020: 8080 8080 8080 8080 8080 8080 8080 8080
00000030: 8080 8080 8080 8080 8080 8080 8080 8080
00000040: 8080 8080 8080 8080 8080 8080 8080 8080
00000050: 8080 8080 8080 8080 8080 8080 8080 8080
00000060: 8080 8080 8080 8080 8080 8080 8080 8080
00000070: 8080 8080 8080 8080 8080 8080 8080 8080
00000080: 8080 8080 8080 8080 8080 8080 8080 8080
00000090: 8080 8080 8080 8080 8080 8080 8080 8080
000000a0: 8080 8080 8080 8080 8080 8080 8080 8080
000000b0: 8080 8080 8080 8080 8080 8080 8080 8080
000000c0: 8080 8080 8080 8080 8080 8080 8080 8080
000000d0: 8080 8080 8080 8080 8080 8080 8080 8080
000000e0: 8080 8080 8080 8080 8080 8080 8080 8080
000000f0: 8080 8080 8080 8080 8080 8080 8080 8080

tfl.pseudo_qconst28 i1 [1, 22, 1, 64] scale=0.037438907 zero_point=-128
0.0 0.0 0.0 0.0 0.0 0.0 0.0 0.0
0.0 0.0 0.0 0.0 0.0 0.0 0.0 0.0
0.0 0.0 0.0 0.0 0.0 0.0 0.0 0.0
0.0 0.0 0.0 0.0 0.0 0.0 0.0 0.0
0.0 0.0 0.0 0.0 0.0 0.0 0.0 0.0
0.0 0.0 0.0 0.0 0.0 0.0 0.0 0.0
0.0 0.0 0.0 0.0 0.0 0.0 0.0 0.0
0.0 0.0 0.0 0.0 0.0 0.0 0.0 0.0
0.0 0.0 0.0 0.0 0.0 0.0 0.0 0.0
0.0 0.0 0.0 0.0 0.0 0.0 0.0 0.0
0.0 0.0 0.0 0.0 0.0 0.0 0.0 0.0
0.0 0.0 0.0 0.0 0.0 0.0 0.0 0.0
0.0 0.0 0.0 0.0 0.0 0.0 0.0 0.0
0.0 0.0 0.0 0.0 0.0 0.0 0.0 0.0
0.0 0.0 0.0 0.0 0.0 0.0 0.0 0.0
0.0 0.0 0.0 0.0 0.0 0.0 0.0 0.0
0.0 0.0 0.0 0.0 0.0 0.0 0.0 0.0
0.0 0.0 0.0 0.0 0.0 0.0 0.0 0.0
0.0 0.0 0.0 0.0 0.0 0.0 0.0 0.0
0.0 0.0 0.0 0.0 0.0 0.0 0.0 0.0
0.0 0.0 0.0 0.0 0.0 0.0 0.0 0.0
0.0 0.0 0.0 0.0 0.0 0.0 0.0 0.0
0.0 0.0 0.0 0.0 0.0 0.0 0.0 0.0
0.0 0.0 0.0 0.0 0.0 0.0 0.0 0.0
0.0 0.0 0.0 0.0 0.0 0.0 0.0 0.0
0.0 0.0 0.0 0.0 0.0 0.0 0.0 0.0
0.0 0.0 0.0 0.0 0.0 0.0 0.0 0.0
0.0 0.0 0.0 0.0 0.0 0.0 0.0 0.0
0.0 0.0 0.0 0.0 0.0 0.0 0.0 0.0
0.0 0.0 0.0 0.0 0.0 0.0 0.0 0.0
0.0 0.0 0.0 0.0 0.0 0.0 0.0 0.0
0.0 0.0 0.0 0.0 0.0 0.0 0.0 0.0
00000000: 8080 8080 8080 8080 8080 8080 8080 8080
00000010: 8080 8080 8080 8080 8080 8080 8080 8080
00000020: 8080 8080 8080 8080 8080 8080 8080 8080
00000030: 8080 8080 8080 8080 8080 8080 8080 8080
00000040: 8080 8080 8080 8080 8080 8080 8080 8080
00000050: 8080 8080 8080 8080 8080 8080 8080 8080
00000060: 8080 8080 8080 8080 8080 8080 8080 8080
00000070: 8080 8080 8080 8080 8080 8080 8080 8080
00000080: 8080 8080 8080 8080 8080 8080 8080 8080
00000090: 8080 8080 8080 8080 8080 8080 8080 8080
000000a0: 8080 8080 8080 8080 8080 8080 8080 8080
000000b0: 8080 8080 8080 8080 8080 8080 8080 8080
000000c0: 8080 8080 8080 8080 8080 8080 8080 8080
000000d0: 8080 8080 8080 8080 8080 8080 8080 8080
000000e0: 8080 8080 8080 8080 8080 8080 8080 8080
000000f0: 8080 8080 8080 8080 8080 8080 8080 8080

tfl.pseudo_qconst29 i1 [1, 16, 1, 64] scale=0.034170855 zero_point=-128
0.0 0.0 0.0 0.0 0.0 0.0 0.0 0.0
0.0 0.0 0.0 0.0 0.0 0.0 0.0 0.0
0.0 0.0 0.0 0.0 0.0 0.0 0.0 0.0
0.0 0.0 0.0 0.0 0.0 0.0 0.0 0.0
0.0 0.0 0.0 0.0 0.0 0.0 0.0 0.0
0.0 0.0 0.0 0.0 0.0 0.0 0.0 0.0
0.0 0.0 0.0 0.0 0.0 0.0 0.0 0.0
0.0 0.0 0.0 0.0 0.0 0.0 0.0 0.0
0.0 0.0 0.0 0.0 0.0 0.0 0.0 0.0
0.0 0.0 0.0 0.0 0.0 0.0 0.0 0.0
0.0 0.0 0.0 0.0 0.0 0.0 0.0 0.0
0.0 0.0 0.0 0.0 0.0 0.0 0.0 0.0
0.0 0.0 0.0 0.0 0.0 0.0 0.0 0.0
0.0 0.0 0.0 0.0 0.0 0.0 0.0 0.0
0.0 0.0 0.0 0.0 0.0 0.0 0.0 0.0
0.0 0.0 0.0 0.0 0.0 0.0 0.0 0.0
0.0 0.0 0.0 0.0 0.0 0.0 0.0 0.0
0.0 0.0 0.0 0.0 0.0 0.0 0.0 0.0
0.0 0.0 0.0 0.0 0.0 0.0 0.0 0.0
0.0 0.0 0.0 0.0 0.0 0.0 0.0 0.0
0.0 0.0 0.0 0.0 0.0 0.0 0.0 0.0
0.0 0.0 0.0 0.0 0.0 0.0 0.0 0.0
0.0 0.0 0.0 0.0 0.0 0.0 0.0 0.0
0.0 0.0 0.0 0.0 0.0 0.0 0.0 0.0
0.0 0.0 0.0 0.0 0.0 0.0 0.0 0.0
0.0 0.0 0.0 0.0 0.0 0.0 0.0 0.0
0.0 0.0 0.0 0.0 0.0 0.0 0.0 0.0
0.0 0.0 0.0 0.0 0.0 0.0 0.0 0.0
0.0 0.0 0.0 0.0 0.0 0.0 0.0 0.0
0.0 0.0 0.0 0.0 0.0 0.0 0.0 0.0
0.0 0.0 0.0 0.0 0.0 0.0 0.0 0.0
0.0 0.0 0.0 0.0 0.0 0.0 0.0 0.0
00000000: 8080 8080 8080 8080 8080 8080 8080 8080
00000010: 8080 8080 8080 8080 8080 8080 8080 8080
00000020: 8080 8080 8080 8080 8080 8080 8080 8080
00000030: 8080 8080 8080 8080 8080 8080 8080 8080
00000040: 8080 8080 8080 8080 8080 8080 8080 8080
00000050: 8080 8080 8080 8080 8080 8080 8080 8080
00000060: 8080 8080 8080 8080 8080 8080 8080 8080
00000070: 8080 8080 8080 8080 8080 8080 8080 8080
00000080: 8080 8080 8080 8080 8080 8080 8080 8080
00000090: 8080 8080 8080 8080 8080 8080 8080 8080
000000a0: 8080 8080 8080 8080 8080 8080 8080 8080
000000b0: 8080 8080 8080 8080 8080 8080 8080 8080
000000c0: 8080 8080 8080 8080 8080 8080 8080 8080
000000d0: 8080 8080 8080 8080 8080 8080 8080 8080
000000e0: 8080 8080 8080 8080 8080 8080 8080 8080
000000f0: 8080 8080 8080 8080 8080 8080 8080 8080
