model/alisa.tflite (tflite, 4936 bytes, 3 tensors)

tfl.pseudo_qconst1 i1 [3, 8]
0	0x9f	-97
1	0xd3	-45
2	0x25	37
3	0xb4	-76
4	0x31	49
5	0xe6	-26
6	0x43	67
7	0x81	-127
8	0x14	20
9	0xa8	-88
10	0x0d	13
11	0x52	82
12	0x9f	-97
13	0x6b	107
14	0x7f	127
15	0xa1	-95
16	0x8c	-116
17	0x14	20
18	0xf5	-11
19	0x0b	11
20	0x81	-127
21	0x63	99
22	0xb1	-79
23	0x23	35

tfl.pseudo_qconst3 i1 [8, 32]
0	0x75	117
1	0xbd	-67
2	0xd9	-39
3	0x17	23
4	0x6a	106
5	0x94	-108
6	0x00	0
7	0x1a	26
8	0x09	9
9	0x62	98
10	0xd9	-39
11	0xa9	-87
12	0x91	-111
13	0x7c	124
14	0xe2	-30
15	0xdd	-35
16	0x81	-127
17	0x29	41
18	0x0e	14
19	0xa3	-93
20	0x39	57
21	0x04	4
22	0x4c	76
23	0xa0	-96
24	0x99	-103
25	0x5a	90
26	0xd0	-48
27	0x5d	93
28	0x30	48
29	0xca	-54
30	0xe4	-28
31	0x2b	43
32	0x52	82
33	0xdb	-37
34	0xf2	-14
35	0xfd	-3
36	0xc3	-61
37	0x9e	-98
38	0xa8	-88
39	0xab	-85
40	0x1c	28
41	0xc8	-56
42	0x65	101
43	0x42	66
44	0x5a	90
45	0x4f	79
46	0x2b	43
47	0x95	-107
48	0x2e	46
49	0xae	-82
50	0x6f	111
51	0x02	2
52	0xb2	-78
53	0x1f	31
54	0x35	53
55	0xf3	-13
56	0x7f	127
57	0x26	38
58	0xe2	-30
59	0xf3	-13
60	0x49	73
61	0x97	-105
62	0xc0	-64
63	0xc3	-61
64	0x63	99
65	0xc6	-58
66	0xae	-82
67	0x5f	95
68	0x38	56
69	0xc8	-56
70	0x78	120
71	0xae	-82
72	0xf8	-8
73	0xbf	-65
74	0x0d	13
75	0x6e	110
76	0xb3	-77
77	0x9d	-99
78	0x5b	91
79	0xda	-38
80	0x10	16
81	0xa4	-92
82	0x9d	-99
83	0x10	16
84	0x0f	15
85	0xd1	-47
86	0x1f	31
87	0x12	18
88	0x64	100
89	0x51	81
90	0x7f	127
91	0x78	120
92	0x22	34
93	0xe9	-23
94	0x5f	95
95	0xb8	-72
96	0x09	9
97	0x59	89
98	0xe7	-25
99	0xb0	-80
100	0xf8	-8
101	0x6f	111
102	0x31	49
103	0x81	-127
104	0x8f	-113
105	0xa9	-87
106	0x4a	74
107	0xf5	-11
108	0xbc	-68
109	0xb8	-72
110	0x1e	30
111	0x18	24
112	0xad	-83
113	0x79	121
114	0xb8	-72
115	0x01	1
116	0x18	24
117	0x1d	29
118	0x17	23
119	0x78	120
120	0xc0	-64
121	0x71	113
122	0x75	117
123	0x17	23
124	0x6b	107
125	0xb5	-75
126	0x17	23
127	0xb0	-80
128	0x7f	127
129	0xe9	-23
130	0xcd	-51
131	0x4e	78
132	0xa5	-91
133	0x01	1
134	0xfc	-4
135	0x55	85
136	0x33	51
137	0x5f	95
138	0xb7	-73
139	0x4b	75
140	0x01	1
141	0x02	2
142	0xc0	-64
143	0xed	-19
144	0xdf	-33
145	0x88	-120
146	0xc7	-57
147	0x29	41
148	0xf0	-16
149	0x9d	-99
150	0x49	73
151	0x13	19
152	0xb8	-72
153	0xe3	-29
154	0x4a	74
155	0xb7	-73
156	0x22	34
157	0x69	105
158	0xe3	-29
159	0x5e	94
160	0x17	23
161	0xf5	-11
162	0x7f	127
163	0xca	-54
164	0x51	81
165	0xe1	-31
166	0x45	69
167	0xf8	-8
168	0xa5	-91
169	0xaf	-81
170	0x8b	-117
171	0x37	55
172	0x89	-119
173	0xe5	-27
174	0x79	121
175	0xd1	-47
176	0xd9	-39
177	0xe6	-26
178	0xc8	-56
179	0xe6	-26
180	0x00	0
181	0x69	105
182	0x0d	13
183	0xd8	-40
184	0x38	56
185	0xdc	-36
186	0xa2	-94
187	0xdc	-36
188	0x6e	110
189	0x8d	-115
190	0xe5	-27
191	0x76	118
192	0x2f	47
193	0x2a	42
194	0x33	51
195	0xd8	-40
196	0x27	39
197	0xe3	-29
198	0xb3	-77
199	0x8e	-114
200	0x94	-108
201	0x41	65
202	0x4b	75
203	0xfa	-6
204	0xb7	-73
205	0x5c	92
206	0xdf	-33
207	0x61	97
208	0xb6	-74
209	0x81	-127
210	0x39	57
211	0x7a	122
212	0x05	5
213	0x24	36
214	0x70	112
215	0x3b	59
216	0x35	53
217	0x0c	12
218	0x3c	60
219	0x03	3
220	0x38	56
221	0xaa	-86
222	0x7e	126
223	0x14	20
224	0x45	69
225	0xe2	-30
226	0xcf	-49
227	0x6e	110
228	0x56	86
229	0xef	-17
230	0x9a	-102
231	0x35	53
232	0x54	84
233	0xa3	-93
234	0x81	-127
235	0x9f	-97
236	0xd4	-44
237	0x96	-106
238	0xce	-50
239	0x9e	-98
240	0x7e	126
241	0x1c	28
242	0x74	116
243	0x26	38
244	0x39	57
245	0x62	98
246	0xe2	-30
247	0x10	16
248	0x31	49
249	0x2b	43
250	0x75	117
251	0x37	55
252	0x16	22
253	0xb0	-80
254	0xaf	-81
255	0x8c	-116

tfl.pseudo_qconst5 i1 [4, 3, 3, 1]
0	0x85	-123
1	0x19	25
2	0xf3	-13
3	0x35	53
4	0x43	67
5	0xa5	-91
6	0x96	-106
7	0x7f	127
8	0xa8	-88
9	0x2e	46
10	0x8d	-115
11	0x30	48
12	0x83	-125
13	0x7f	127
14	0xd5	-43
15	0x1b	27
16	0xf6	-10
17	0xa5	-91
18	0x73	115
19	0x07	7
20	0xb5	-75
21	0xfa	-6
22	0x81	-127
23	0xf3	-13
24	0x6e	110
25	0xf1	-15
26	0xa2	-94
27	0x81	-127
28	0x96	-106
29	0xd9	-39
30	0x7c	124
31	0x33	51
32	0xe3	-29
33	0x77	119
34	0x06	6
35	0xf8	-8
