model/alisa.tflite (tflite, 60944 bytes, 18 tensors)

tfl.pseudo_qconst1 i1 [1, 1088] scale=0.0016468498 zero_point=0
0	0xce	-0.08234249
1	0x9d	-0.16303813
2	0xd0	-0.07904879
3	0xfd	-0.0049405494
4	0xf9	-0.011527948
5	0xf1	-0.024702746
6	0xdb	-0.06093344
7	0xb2	-0.12845428
8	0xa3	-0.15315703
9	0xd9	-0.06422714
10	0xcb	-0.08728304
11	0x07	0.011527948
12	0x03	0.0049405494
13	0x00	0.0
14	0xbd	-0.110338934
15	0xc8	-0.092223585
16	0xaf	-0.13339484
17	0xb6	-0.12186688
18	0x1b	0.044464946
19	0x0b	0.018115347
20	0x00	0.0
21	0xaa	-0.14162908
22	0x07	0.011527948
23	0x0f	0.024702746
24	0xb7	-0.120220035
25	0xf4	-0.019762198
26	0x08	0.013174798
27	0xb1	-0.13010113
28	0xe0	-0.052699193
29	0xca	-0.08892989
30	0x02	0.0032936996
31	0xf2	-0.023055896
32	0xe3	-0.047758643
33	0x07	0.011527948
34	0x18	0.039524395
35	0xd0	-0.07904879
36	0xf0	-0.026349597
37	0xe8	-0.039524395
38	0x0b	0.018115347
39	0xbb	-0.113632634
40	0xde	-0.055992894
41	0xee	-0.029643297
42	0xe0	-0.052699193
43	0xeb	-0.034583844
44	0xec	-0.032936998
45	0xfd	-0.0049405494
46	0xe9	-0.037877545
47	0x25	0.06093344
48	0xc1	-0.10375154
49	0x04	0.006587399
50	0xbf	-0.10704523
51	0xfa	-0.009881099
52	0xc6	-0.095517285
53	0x0f	0.024702746
54	0xe0	-0.052699193
55	0x09	0.014821649
56	0xd5	-0.07081454
57	0xbd	-0.110338934
58	0x05	0.008234249
59	0x28	0.065873995
60	0xf1	-0.024702746
61	0x1b	0.044464946
62	0xfb	-0.008234249
63	0x0d	0.021409048
64	0xe3	-0.047758643
65	0xa3	-0.15315703
66	0xd3	-0.07410824
67	0xf2	-0.023055896
68	0x06	0.009881099
69	0xe6	-0.042818096
70	0xb7	-0.120220035
71	0xd2	-0.07575509
72	0xac	-0.13833538
73	0x09	0.014821649
74	0x05	0.008234249
75	0xe0	-0.052699193
76	0xe0	-0.052699193
77	0xef	-0.027996447
78	0xd6	-0.06916769
79	0xcb	-0.08728304
80	0xe5	-0.044464946
81	0xcc	-0.08563619
82	0x2c	0.07246139
83	0x41	0.10704523
84	0x17	0.037877545
85	0xcc	-0.08563619
86	0xfd	-0.0049405494
87	0xfd	-0.0049405494
88	0xb8	-0.11857319
89	0xc0	-0.10539839
90	0xe0	-0.052699193
91	0xce	-0.08234249
92	0xe0	-0.052699193
93	0xe4	-0.046111792
94	0xd1	-0.07740194
95	0xe5	-0.044464946
96	0xee	-0.029643297
97	0x24	0.059286594
98	0xf9	-0.011527948
99	0x10	0.026349597
100	0xd9	-0.06422714
101	0x03	0.0049405494
102	0x09	0.014821649
103	0xd4	-0.07246139
104	0x9e	-0.16139127
105	0x0b	0.018115347
106	0x0f	0.024702746
107	0xdc	-0.059286594
108	0x19	0.041171245
109	0xee	-0.029643297
110	0xdf	-0.054346044
111	0x23	0.057639744
112	0x01	0.0016468498
113	0xff	-0.0016468498
114	0xee	-0.029643297
115	0x09	0.014821649
116	0xd7	-0.06752084
117	0xf0	-0.026349597
118	0xe5	-0.044464946
119	0xec	-0.032936998
120	0x0a	0.016468499
121	0xc9	-0.09057674
122	0xe9	-0.037877545
123	0x00	0.0
124	0x0a	0.016468499
125	0xfd	-0.0049405494
126	0x13	0.031290147
127	0x2a	0.06916769
128	0xcf	-0.08069564
129	0xfd	-0.0049405494
130	0x06	0.009881099
131	0xae	-0.13504168
132	0xe5	-0.044464946
133	0xb5	-0.123513736
134	0xcb	-0.08728304
135	0xc8	-0.092223585
136	0xed	-0.031290147
137	0xe0	-0.052699193
138	0xf4	-0.019762198
139	0xcc	-0.08563619
140	0xfa	-0.009881099
141	0xc5	-0.09716414
142	0xcf	-0.08069564
143	0xc7	-0.09387044
144	0xb3	-0.12680744
145	0xcc	-0.08563619
146	0x36	0.08892989
147	0x34	0.08563619
148	0x1c	0.046111792
149	0xbb	-0.113632634
150	0xfb	-0.008234249
151	0xda	-0.062580295
152	0xe0	-0.052699193
153	0xbe	-0.10869209
154	0xed	-0.031290147
155	0xe5	-0.044464946
156	0x0e	0.023055896
157	0xdd	-0.057639744
158	0xc4	-0.098810986
159	0xb9	-0.116926335
160	0x1e	0.049405493
161	0x1e	0.049405493
162	0x25	0.06093344
163	0xe8	-0.039524395
164	0xc8	-0.092223585
165	0xc0	-0.10539839
166	0xd2	-0.07575509
167	0xc2	-0.102104686
168	0xed	-0.031290147
169	0xf0	-0.026349597
170	0xb6	-0.12186688
171	0xec	-0.032936998
172	0xfb	-0.008234249
173	0xe9	-0.037877545
174	0xdc	-0.059286594
175	0xd4	-0.07246139
176	0xbc	-0.11198579
177	0xee	-0.029643297
178	0x01	0.0016468498
179	0x26	0.062580295
180	0xca	-0.08892989
181	0xed	-0.031290147
182	0xa8	-0.14492278
183	0xbd	-0.110338934
184	0x01	0.0016468498
185	0xec	-0.032936998
186	0x02	0.0032936996
187	0x17	0.037877545
188	0xd0	-0.07904879
189	0xe7	-0.041171245
190	0xe5	-0.044464946
191	0x0d	0.021409048
192	0xca	-0.08892989
193	0xf1	-0.024702746
194	0xe7	-0.041171245
195	0xc1	-0.10375154
196	0x06	0.009881099
197	0xc5	-0.09716414
198	0xfe	-0.0032936996
199	0xca	-0.08892989
200	0x09	0.014821649
201	0xdd	-0.057639744
202	0x03	0.0049405494
203	0xda	-0.062580295
204	0xf6	-0.016468499
205	0xe9	-0.037877545
206	0xe6	-0.042818096
207	0xbc	-0.11198579
208	0x0c	0.019762198
209	0xfa	-0.009881099
210	0xe8	-0.039524395
211	0x07	0.011527948
212	0xd7	-0.06752084
213	0xf4	-0.019762198
214	0x1a	0.042818096
215	0xe8	-0.039524395
216	0xe7	-0.041171245
217	0xbe	-0.10869209
218	0x2a	0.06916769
219	0xc6	-0.095517285
220	0xc9	-0.09057674
221	0xd1	-0.07740194
222	0xbf	-0.10704523
223	0xe0	-0.052699193
224	0x00	0.0
225	0x0a	0.016468499
226	0x26	0.062580295
227	0xf8	-0.013174798
228	0xeb	-0.034583844
229	0x00	0.0
230	0xfc	-0.006587399
231	0xcc	-0.08563619
232	0xc7	-0.09387044
233	0xe1	-0.051052343
234	0xc5	-0.09716414
235	0xdb	-0.06093344
236	0x1d	0.047758643
237	0xb6	-0.12186688
238	0x1c	0.046111792
239	0x0d	0.021409048
240	0xde	-0.055992894
241	0xca	-0.08892989
242	0xc4	-0.098810986
243	0x1e	0.049405493
244	0xec	-0.032936998
245	0x00	0.0
246	0xb1	-0.13010113
247	0x13	0.031290147
248	0x16	0.036230695
249	0xa8	-0.14492278
250	0xf4	-0.019762198
251	0xe9	-0.037877545
252	0xfa	-0.009881099
253	0xe5	-0.044464946
254	0x0a	0.016468499
255	0x34	0.08563619

tfl.pseudo_qconst3 i1 [64, 1, 1, 64]
0	0x3a	58
1	0x3c	60
2	0x43	67
3	0xe6	-26
4	0xee	-18
5	0xee	-18
6	0x13	19
7	0xe4	-28
8	0xae	-82
9	0x59	89
10	0xbd	-67
11	0x4c	76
12	0x9d	-99
13	0xc5	-59
14	0x26	38
15	0xd5	-43
16	0x4a	74
17	0xfb	-5
18	0xed	-19
19	0x10	16
20	0x9f	-97
21	0xc2	-62
22	0xb2	-78
23	0x8d	-115
24	0xc9	-55
25	0xce	-50
26	0x81	-127
27	0xe2	-30
28	0xb6	-74
29	0x57	87
30	0x35	53
31	0xbb	-69
32	0xf5	-11
33	0x30	48
34	0xfb	-5
35	0xe9	-23
36	0x9f	-97
37	0x9d	-99
38	0x0d	13
39	0x3b	59
40	0xd7	-41
41	0xbf	-65
42	0x22	34
43	0xa7	-89
44	0xbc	-68
45	0x2b	43
46	0x2c	44
47	0xb4	-76
48	0xd5	-43
49	0xbc	-68
50	0xc5	-59
51	0xf5	-11
52	0x18	24
53	0x0d	13
54	0x42	66
55	0x03	3
56	0xb0	-80
57	0x48	72
58	0x45	69
59	0x3e	62
60	0xc1	-63
61	0x26	38
62	0x19	25
63	0xd4	-44
64	0x11	17
65	0xe3	-29
66	0x09	9
67	0x26	38
68	0x82	-126
69	0xc2	-62
70	0x3f	63
71	0x8d	-115
72	0x4c	76
73	0xf2	-14
74	0xb0	-80
75	0xc0	-64
76	0x11	17
77	0x76	118
78	0xf0	-16
79	0xee	-18
80	0x1a	26
81	0x25	37
82	0x7f	127
83	0xcd	-51
84	0x85	-123
85	0x4d	77
86	0x0b	11
87	0xc6	-58
88	0x02	2
89	0xd6	-42
90	0x2c	44
91	0x07	7
92	0x09	9
93	0xb3	-77
94	0x82	-126
95	0xfc	-4
96	0xae	-82
97	0x02	2
98	0x1f	31
99	0xaa	-86
100	0xa6	-90
101	0xd2	-46
102	0x2f	47
103	0x12	18
104	0xb2	-78
105	0xcf	-49
106	0x05	5
107	0xfb	-5
108	0x44	68
109	0xd6	-42
110	0xd4	-44
111	0xe0	-32
112	0xec	-20
113	0x17	23
114	0x1b	27
115	0x0d	13
116	0x2c	44
117	0x6a	106
118	0x1f	31
119	0x15	21
120	0x30	48
121	0x0d	13
122	0xe5	-27
123	0x4b	75
124	0xd0	-48
125	0xea	-22
126	0xb7	-73
127	0x3b	59
128	0x81	-127
129	0x9d	-99
130	0x64	100
131	0xd6	-42
132	0x8a	-118
133	0x21	33
134	0xa7	-89
135	0x22	34
136	0x58	88
137	0x33	51
138	0x4b	75
139	0x19	25
140	0x41	65
141	0x5f	95
142	0x49	73
143	0xd9	-39
144	0x2e	46
145	0xc3	-61
146	0x6b	107
147	0x0d	13
148	0xa7	-89
149	0x1f	31
150	0x5f	95
151	0x67	103
152	0x5b	91
153	0x1b	27
154	0x29	41
155	0xd7	-41
156	0x3c	60
157	0xad	-83
158	0xe3	-29
159	0x4a	74
160	0xea	-22
161	0xee	-18
162	0x8c	-116
163	0xc5	-59
164	0x2a	42
165	0xa0	-96
166	0xe8	-24
167	0x69	105
168	0x82	-126
169	0xda	-38
170	0x02	2
171	0x64	100
172	0xf3	-13
173	0x39	57
174	0x1b	27
175	0x44	68
176	0xa5	-91
177	0xbc	-68
178	0x77	119
179	0xbe	-66
180	0x53	83
181	0x05	5
182	0x36	54
183	0x37	55
184	0x7e	126
185	0x9d	-99
186	0x57	87
187	0xe8	-24
188	0xfb	-5
189	0xc8	-56
190	0x31	49
191	0xa9	-87
192	0xe6	-26
193	0x02	2
194	0x92	-110
195	0xa4	-92
196	0xa1	-95
197	0xc5	-59
198	0x17	23
199	0x0c	12
200	0x24	36
201	0x20	32
202	0x11	17
203	0xa4	-92
204	0x2f	47
205	0x37	55
206	0x3a	58
207	0x9a	-102
208	0x75	117
209	0x45	69
210	0x38	56
211	0x14	20
212	0x4c	76
213	0x6d	109
214	0xc0	-64
215	0x08	8
216	0xbd	-67
217	0xc3	-61
218	0x81	-127
219	0xd8	-40
220	0xe2	-30
221	0x58	88
222	0x58	88
223	0x9d	-99
224	0x47	71
225	0xc4	-60
226	0x4d	77
227	0x6d	109
228	0x16	22
229	0xe3	-29
230	0x58	88
231	0xd1	-47
232	0x08	8
233	0x59	89
234	0xff	-1
235	0x85	-123
236	0xbd	-67
237	0x9f	-97
238	0x43	67
239	0x7c	124
240	0xff	-1
241	0x1f	31
242	0xc9	-55
243	0x00	0
244	0x37	55
245	0xdd	-35
246	0xa7	-89
247	0x3d	61
248	0xe5	-27
249	0x6c	108
250	0x44	68
251	0xef	-17
252	0x21	33
253	0x3a	58
254	0xb2	-78
255	0x20	32

tfl.pseudo_qconst5 i1 [1, 23, 1, 64]
0	0xe3	-29
1	0xfb	-5
2	0xef	-17
3	0x68	104
4	0x9c	-100
5	0xba	-70
6	0xf9	-7
7	0x11	17
8	0x33	51
9	0xec	-20
10	0xf2	-14
11	0xd1	-47
12	0x56	86
13	0xfd	-3
14	0x2e	46
15	0xf7	-9
16	0x7f	127
17	0x7f	127
18	0xca	-54
19	0xf9	-7
20	0x0b	11
21	0x4e	78
22	0xf5	-11
23	0xd1	-47
24	0xe8	-24
25	0x9d	-99
26	0x0a	10
27	0x7b	123
28	0x23	35
29	0xd4	-44
30	0x4f	79
31	0x0e	14
32	0xf3	-13
33	0x0f	15
34	0xad	-83
35	0xda	-38
36	0xed	-19
37	0x3a	58
38	0xcd	-51
39	0x42	66
40	0x1a	26
41	0x81	-127
42	0xf5	-11
43	0x7f	127
44	0x81	-127
45	0x84	-124
46	0x6d	109
47	0x1c	28
48	0x13	19
49	0x7f	127
50	0xa5	-91
51	0x81	-127
52	0xd0	-48
53	0xbe	-66
54	0x02	2
55	0x14	20
56	0xc2	-62
57	0xcd	-51
58	0x35	53
59	0x32	50
60	0xf1	-15
61	0x37	55
62	0x81	-127
63	0x56	86
64	0xde	-34
65	0x0e	14
66	0x10	16
67	0x46	70
68	0xc3	-61
69	0xb8	-72
70	0xd1	-47
71	0x2c	44
72	0x08	8
73	0x49	73
74	0x1e	30
75	0x59	89
76	0x4b	75
77	0x39	57
78	0x13	19
79	0xf2	-14
80	0x62	98
81	0x65	101
82	0x25	37
83	0x21	33
84	0x10	16
85	0x25	37
86	0xb1	-79
87	0xd7	-41
88	0x52	82
89	0xef	-17
90	0x1f	31
91	0x7f	127
92	0x2f	47
93	0xe7	-25
94	0xbb	-69
95	0x62	98
96	0xf5	-11
97	0x69	105
98	0x27	39
99	0xde	-34
100	0xa8	-88
101	0x6f	111
102	0xeb	-21
103	0x5f	95
104	0xcd	-51
105	0x86	-122
106	0xbe	-66
107	0xde	-34
108	0x19	25
109	0xe0	-32
110	0x5e	94
111	0x12	18
112	0xbb	-69
113	0x28	40
114	0x8f	-113
115	0xe3	-29
116	0x1a	26
117	0x18	24
118	0xd2	-46
119	0x1e	30
120	0xbf	-65
121	0xbf	-65
122	0xf7	-9
123	0x2f	47
124	0xe3	-29
125	0x7f	127
126	0xcb	-53
127	0x57	87
128	0xc2	-62
129	0xfd	-3
130	0xc1	-63
131	0x7c	124
132	0x0d	13
133	0x06	6
134	0xeb	-21
135	0x10	16
136	0x20	32
137	0x05	5
138	0x36	54
139	0x3f	63
140	0x5d	93
141	0x49	73
142	0x2a	42
143	0x28	40
144	0x35	53
145	0xd6	-42
146	0x66	102
147	0x09	9
148	0x45	69
149	0x6d	109
150	0x41	65
151	0xee	-18
152	0x37	55
153	0xfb	-5
154	0xd8	-40
155	0x5e	94
156	0xf7	-9
157	0x01	1
158	0xcf	-49
159	0x4f	79
160	0xcf	-49
161	0x57	87
162	0x40	64
163	0x12	18
164	0xa5	-91
165	0x6e	110
166	0x22	34
167	0x24	36
168	0xfd	-3
169	0x10	16
170	0xd5	-43
171	0x37	55
172	0x09	9
173	0xa6	-90
174	0xc5	-59
175	0x20	32
176	0x9a	-102
177	0xee	-18
178	0x81	-127
179	0x25	37
180	0x81	-127
181	0xa2	-94
182	0xd3	-45
183	0xef	-17
184	0xee	-18
185	0xe1	-31
186	0x17	23
187	0x35	53
188	0x2b	43
189	0x73	115
190	0xb2	-78
191	0xfc	-4
192	0x11	17
193	0xee	-18
194	0xce	-50
195	0x22	34
196	0x13	19
197	0xeb	-21
198	0x6e	110
199	0x28	40
200	0x31	49
201	0x0c	12
202	0x02	2
203	0xc1	-63
204	0x16	22
205	0xd2	-46
206	0x4b	75
207	0x40	64
208	0x4f	79
209	0x56	86
210	0x56	86
211	0x11	17
212	0x5e	94
213	0x77	119
214	0xd8	-40
215	0xe4	-28
216	0x6f	111
217	0xf0	-16
218	0xd6	-42
219	0x25	37
220	0xa0	-96
221	0xe2	-30
222	0xf4	-12
223	0x20	32
224	0xe5	-27
225	0xdd	-35
226	0x7f	127
227	0xce	-50
228	0x25	37
229	0x36	54
230	0x61	97
231	0xb5	-75
232	0x10	16
233	0x14	20
234	0x42	66
235	0x42	66
236	0x81	-127
237	0xa1	-95
238	0xff	-1
239	0x49	73
240	0xc7	-57
241	0x9d	-99
242	0xa9	-87
243	0x1a	26
244	0x17	23
245	0xf5	-11
246	0xfa	-6
247	0x14	20
248	0x1e	30
249	0x5e	94
250	0xee	-18
251	0x1a	26
252	0x09	9
253	0x32	50
254	0xf0	-16
255	0x55	85

tfl.pseudo_qconst7 i1 [64, 1, 1, 64]
0	0x21	33
1	0x21	33
2	0xcb	-53
3	0xf9	-7
4	0xf0	-16
5	0x53	83
6	0xcf	-49
7	0x8e	-114
8	0x58	88
9	0xe0	-32
10	0x17	23
11	0x29	41
12	0x43	67
13	0xfe	-2
14	0xfa	-6
15	0xcd	-51
16	0x13	19
17	0x5b	91
18	0xd9	-39
19	0x39	57
20	0x5e	94
21	0x18	24
22	0xcc	-52
23	0xc3	-61
24	0xc0	-64
25	0xac	-84
26	0xbf	-65
27	0x2f	47
28	0xe6	-26
29	0x12	18
30	0xbc	-68
31	0x37	55
32	0xf1	-15
33	0x00	0
34	0xa9	-87
35	0xd2	-46
36	0x81	-127
37	0x61	97
38	0x3f	63
39	0xed	-19
40	0x00	0
41	0xd1	-47
42	0x33	51
43	0xdb	-37
44	0x3e	62
45	0x00	0
46	0x1d	29
47	0x0b	11
48	0x3f	63
49	0x47	71
50	0x61	97
51	0x2c	44
52	0x08	8
53	0x53	83
54	0xf8	-8
55	0x1e	30
56	0xd2	-46
57	0xc9	-55
58	0xdd	-35
59	0xda	-38
60	0xcf	-49
61	0x16	22
62	0x3c	60
63	0x01	1
64	0xcd	-51
65	0xd4	-44
66	0x33	51
67	0xd2	-46
68	0xd1	-47
69	0xac	-84
70	0x4d	77
71	0x35	53
72	0x1a	26
73	0xdf	-33
74	0x07	7
75	0xe3	-29
76	0xb8	-72
77	0x39	57
78	0xcb	-53
79	0x81	-127
80	0x62	98
81	0x47	71
82	0xf6	-10
83	0x3e	62
84	0xb6	-74
85	0x1f	31
86	0x0e	14
87	0xfd	-3
88	0x41	65
89	0x16	22
90	0xc0	-64
91	0xef	-17
92	0xc0	-64
93	0xdd	-35
94	0x08	8
95	0x11	17
96	0xdb	-37
97	0x2b	43
98	0x1a	26
99	0x3a	58
100	0x01	1
101	0x25	37
102	0xdf	-33
103	0x53	83
104	0xa9	-87
105	0xe7	-25
106	0x4a	74
107	0x02	2
108	0xe4	-28
109	0x3a	58
110	0xe7	-25
111	0x40	64
112	0x34	52
113	0xe8	-24
114	0xb0	-80
115	0x16	22
116	0x26	38
117	0x24	36
118	0xc3	-61
119	0xf9	-7
120	0xcd	-51
121	0xd2	-46
122	0x3b	59
123	0xcc	-52
124	0xda	-38
125	0x38	56
126	0x50	80
127	0x07	7
128	0xc1	-63
129	0x56	86
130	0x10	16
131	0xf1	-15
132	0x15	21
133	0xbd	-67
134	0xa4	-92
135	0x31	49
136	0xf9	-7
137	0xeb	-21
138	0xdd	-35
139	0xec	-20
140	0xd6	-42
141	0x56	86
142	0xff	-1
143	0x16	22
144	0xe6	-26
145	0x04	4
146	0x4b	75
147	0x35	53
148	0xd5	-43
149	0x81	-127
150	0x02	2
151	0x9e	-98
152	0xf2	-14
153	0x6e	110
154	0x00	0
155	0xed	-19
156	0x92	-110
157	0x16	22
158	0xc9	-55
159	0x3f	63
160	0x1b	27
161	0x32	50
162	0x3c	60
163	0x2d	45
164	0x0b	11
165	0xa9	-87
166	0xc4	-60
167	0x65	101
168	0xc4	-60
169	0x18	24
170	0x57	87
171	0x20	32
172	0xd6	-42
173	0xc8	-56
174	0x27	39
175	0x27	39
176	0x1c	28
177	0x38	56
178	0xe4	-28
179	0xfc	-4
180	0x2b	43
181	0xdc	-36
182	0xd2	-46
183	0xd0	-48
184	0xdc	-36
185	0xcb	-53
186	0x15	21
187	0x1e	30
188	0x29	41
189	0xdf	-33
190	0xf4	-12
191	0x10	16
192	0x44	68
193	0x3a	58
194	0x30	48
195	0xc7	-57
196	0x4f	79
197	0x02	2
198	0xe4	-28
199	0xdb	-37
200	0x3a	58
201	0xae	-82
202	0x51	81
203	0x0c	12
204	0xc4	-60
205	0xfc	-4
206	0xa1	-95
207	0xe7	-25
208	0x2c	44
209	0x1f	31
210	0x25	37
211	0x5e	94
212	0x9f	-97
213	0x33	51
214	0x42	66
215	0xa3	-93
216	0x7f	127
217	0x38	56
218	0x53	83
219	0xaf	-81
220	0x2f	47
221	0x5b	91
222	0xff	-1
223	0x1b	27
224	0xca	-54
225	0x3a	58
226	0xd9	-39
227	0x64	100
228	0xfa	-6
229	0xe6	-26
230	0x07	7
231	0xd2	-46
232	0xc7	-57
233	0x20	32
234	0xdb	-37
235	0x0b	11
236	0x5b	91
237	0x61	97
238	0xdf	-33
239	0x4a	74
240	0x32	50
241	0xdc	-36
242	0x09	9
243	0xc7	-57
244	0xef	-17
245	0x4b	75
246	0x45	69
247	0x39	57
248	0x5f	95
249	0xd3	-45
250	0x00	0
251	0xeb	-21
252	0x2b	43
253	0xf0	-16
254	0x30	48
255	0xd1	-47

tfl.pseudo_qconst9 i1 [1, 15, 1, 32]
0	0xb6	-74
1	0x3c	60
2	0x08	8
3	0x8a	-118
4	0xd3	-45
5	0x87	-121
6	0xd3	-45
7	0x0e	14
8	0xae	-82
9	0xe1	-31
10	0xeb	-21
11	0xfc	-4
12	0xd6	-42
13	0x81	-127
14	0x67	103
15	0x29	41
16	0x99	-103
17	0x42	66
18	0x60	96
19	0x22	34
20	0x55	85
21	0xa8	-88
22	0x19	25
23	0x1b	27
24	0x7f	127
25	0x7f	127
26	0x61	97
27	0xa4	-92
28	0x81	-127
29	0x0d	13
30	0x3a	58
31	0x4f	79
32	0x45	69
33	0x0b	11
34	0xec	-20
35	0x81	-127
36	0xc1	-63
37	0xba	-70
38	0xe2	-30
39	0xa7	-89
40	0x5b	91
41	0x01	1
42	0x0e	14
43	0x0c	12
44	0xb3	-77
45	0xa8	-88
46	0x0e	14
47	0xe3	-29
48	0xc4	-60
49	0xd3	-45
50	0x3c	60
51	0xd0	-48
52	0xdd	-35
53	0x94	-108
54	0x81	-127
55	0x5a	90
56	0x32	50
57	0x1b	27
58	0x29	41
59	0x81	-127
60	0xe7	-25
61	0x3a	58
62	0xec	-20
63	0xd4	-44
64	0x2b	43
65	0x20	32
66	0xe0	-32
67	0xae	-82
68	0x81	-127
69	0xf2	-14
70	0x54	84
71	0x47	71
72	0xe7	-25
73	0xa5	-91
74	0xbb	-69
75	0x0f	15
76	0xf5	-11
77	0xba	-70
78	0x11	17
79	0x03	3
80	0x44	68
81	0xdb	-37
82	0x61	97
83	0x00	0
84	0x4c	76
85	0x81	-127
86	0xf2	-14
87	0xf0	-16
88	0xd3	-45
89	0xce	-50
90	0xf5	-11
91	0x1c	28
92	0xd9	-39
93	0xfd	-3
94	0x0e	14
95	0xea	-22
96	0x15	21
97	0x12	18
98	0x40	64
99	0xd6	-42
100	0xa6	-90
101	0xfa	-6
102	0xa4	-92
103	0x56	86
104	0x1b	27
105	0x0d	13
106	0x99	-103
107	0xf4	-12
108	0x2a	42
109	0x33	51
110	0xc9	-55
111	0x46	70
112	0xd3	-45
113	0x8d	-115
114	0x70	112
115	0x9d	-99
116	0x5b	91
117	0x8e	-114
118	0x24	36
119	0x46	70
120	0xe7	-25
121	0xd3	-45
122	0x1f	31
123	0xe4	-28
124	0x28	40
125	0x0e	14
126	0x4f	79
127	0x1f	31
128	0x7f	127
129	0xd5	-43
130	0xf4	-12
131	0xf6	-10
132	0xef	-17
133	0x81	-127
134	0xf2	-14
135	0xff	-1
136	0x2a	42
137	0x1f	31
138	0xa2	-94
139	0xa3	-93
140	0x5f	95
141	0x11	17
142	0xe0	-32
143	0x1d	29
144	0xa4	-92
145	0xe4	-28
146	0x4d	77
147	0xa0	-96
148	0x33	51
149	0xe0	-32
150	0x16	22
151	0xae	-82
152	0x12	18
153	0xa4	-92
154	0xe3	-29
155	0xb8	-72
156	0x24	36
157	0xf1	-15
158	0x63	99
159	0x38	56
160	0xc1	-63
161	0xf7	-9
162	0xc0	-64
163	0x0f	15
164	0xfa	-6
165	0xc4	-60
166	0x81	-127
167	0xf1	-15
168	0x68	104
169	0x87	-121
170	0xf8	-8
171	0x3f	63
172	0x33	51
173	0x0b	11
174	0x57	87
175	0xae	-82
176	0x01	1
177	0xfb	-5
178	0x26	38
179	0x8a	-118
180	0xee	-18
181	0x36	54
182	0xdc	-36
183	0xfa	-6
184	0xd2	-46
185	0xf6	-10
186	0x15	21
187	0xe9	-23
188	0xe2	-30
189	0x18	24
190	0x43	67
191	0xfc	-4
192	0x72	114
193	0x1f	31
194	0x39	57
195	0xf6	-10
196	0xd3	-45
197	0xc6	-58
198	0x23	35
199	0x63	99
200	0x34	52
201	0x3a	58
202	0x8a	-118
203	0xb2	-78
204	0x0b	11
205	0xd0	-48
206	0x71	113
207	0xcf	-49
208	0xf5	-11
209	0x1d	29
210	0x02	2
211	0x5b	91
212	0x15	21
213	0xcc	-52
214	0xc8	-56
215	0x19	25
216	0xea	-22
217	0x03	3
218	0x7b	123
219	0x02	2
220	0x0c	12
221	0xe6	-26
222	0x31	49
223	0xfe	-2
224	0x11	17
225	0xe7	-25
226	0x54	84
227	0x2b	43
228	0x1c	28
229	0xea	-22
230	0xb7	-73
231	0xef	-17
232	0xc7	-57
233	0x05	5
234	0x2d	45
235	0xd5	-43
236	0x1d	29
237	0xcf	-49
238	0x7f	127
239	0xb4	-76
240	0x52	82
241	0xbe	-66
242	0x40	64
243	0x28	40
244	0x52	82
245	0xd7	-41
246	0xa9	-87
247	0x2f	47
248	0x8a	-118
249	0xeb	-21
250	0x7f	127
251	0x21	33
252	0xb3	-77
253	0x4c	76
254	0xe2	-30
255	0x52	82

tfl.pseudo_qconst11 i1 [1, 9, 1, 32]
0	0x0f	15
1	0xe4	-28
2	0xeb	-21
3	0x81	-127
4	0xb2	-78
5	0x2d	45
6	0x43	67
7	0x5c	92
8	0x81	-127
9	0x7d	125
10	0x00	0
11	0x4f	79
12	0xd8	-40
13	0x1a	26
14	0x9c	-100
15	0xa2	-94
16	0x75	117
17	0xc2	-62
18	0x81	-127
19	0xad	-83
20	0x24	36
21	0xbf	-65
22	0x1b	27
23	0x4d	77
24	0xdf	-33
25	0xf3	-13
26	0x3e	62
27	0x05	5
28	0xd4	-44
29	0x6c	108
30	0x65	101
31	0x75	117
32	0x94	-108
33	0x0f	15
34	0x7f	127
35	0x57	87
36	0x3d	61
37	0x35	53
38	0xd8	-40
39	0x8e	-114
40	0x93	-109
41	0xa3	-93
42	0x10	16
43	0x94	-108
44	0x0b	11
45	0xcb	-53
46	0xb7	-73
47	0x43	67
48	0x7f	127
49	0xda	-38
50	0xe3	-29
51	0xcc	-52
52	0xf2	-14
53	0xd8	-40
54	0x9f	-97
55	0x9c	-100
56	0x15	21
57	0x67	103
58	0xfe	-2
59	0xc6	-58
60	0x9c	-100
61	0xe7	-25
62	0x2c	44
63	0x81	-127
64	0x3a	58
65	0x26	38
66	0x0e	14
67	0x04	4
68	0x01	1
69	0xc7	-57
70	0xf2	-14
71	0xad	-83
72	0xe7	-25
73	0x58	88
74	0x52	82
75	0xd9	-39
76	0xf1	-15
77	0x12	18
78	0x81	-127
79	0x29	41
80	0x3a	58
81	0xd3	-45
82	0x0e	14
83	0x34	52
84	0x81	-127
85	0x4d	77
86	0x7f	127
87	0x7a	122
88	0x16	22
89	0x36	54
90	0x1f	31
91	0x39	57
92	0x3d	61
93	0x7f	127
94	0x50	80
95	0x4f	79
96	0x14	20
97	0x37	55
98	0xd8	-40
99	0xe7	-25
100	0xa2	-94
101	0xf2	-14
102	0xdf	-33
103	0x42	66
104	0xf6	-10
105	0x9a	-102
106	0x01	1
107	0x9f	-97
108	0x45	69
109	0xd8	-40
110	0x92	-110
111	0x17	23
112	0x0a	10
113	0x5c	92
114	0xb0	-80
115	0x7f	127
116	0x07	7
117	0xe8	-24
118	0x76	118
119	0x7f	127
120	0x4e	78
121	0x3c	60
122	0xeb	-21
123	0x09	9
124	0x8e	-114
125	0xbd	-67
126	0x2c	44
127	0x8e	-114
128	0x52	82
129	0xb1	-79
130	0xa2	-94
131	0xaa	-86
132	0xc9	-55
133	0x34	52
134	0x94	-108
135	0x3d	61
136	0x79	121
137	0x4d	77
138	0x35	53
139	0x85	-123
140	0xd5	-43
141	0xda	-38
142	0xc1	-63
143	0xb9	-71
144	0x6d	109
145	0x2a	42
146	0xad	-83
147	0x39	57
148	0x38	56
149	0x11	17
150	0x29	41
151	0x91	-111
152	0x5f	95
153	0x7d	125
154	0x22	34
155	0x3c	60
156	0x26	38
157	0x6a	106
158	0x81	-127
159	0x5b	91
160	0x21	33
161	0xcb	-53
162	0xe8	-24
163	0x24	36
164	0xd7	-41
165	0x7f	127
166	0xaf	-81
167	0x81	-127
168	0x48	72
169	0x66	102
170	0x7f	127
171	0x00	0
172	0x81	-127
173	0x8c	-116
174	0xb0	-80
175	0x96	-106
176	0x6d	109
177	0xde	-34
178	0xf0	-16
179	0x46	70
180	0x59	89
181	0x3a	58
182	0xfc	-4
183	0x22	34
184	0x26	38
185	0xd1	-47
186	0x05	5
187	0x00	0
188	0xe2	-30
189	0xbb	-69
190	0xe5	-27
191	0x05	5
192	0x15	21
193	0x48	72
194	0x5f	95
195	0x65	101
196	0x6c	108
197	0x42	66
198	0x81	-127
199	0x05	5
200	0xeb	-21
201	0x53	83
202	0x9f	-97
203	0x91	-111
204	0xc3	-61
205	0xbd	-67
206	0xbd	-67
207	0xd1	-47
208	0x76	118
209	0x7f	127
210	0x26	38
211	0x24	36
212	0x19	25
213	0x13	19
214	0xf9	-7
215	0x83	-125
216	0x1c	28
217	0x81	-127
218	0x3d	61
219	0x81	-127
220	0xb1	-79
221	0xe1	-31
222	0xfc	-4
223	0xb8	-72
224	0x7f	127
225	0x51	81
226	0x66	102
227	0x41	65
228	0x1d	29
229	0x3e	62
230	0xc9	-55
231	0x22	34
232	0x62	98
233	0x7f	127
234	0xbd	-67
235	0x81	-127
236	0x9d	-99
237	0xf0	-16
238	0xca	-54
239	0x64	100
240	0x6b	107
241	0xa7	-89
242	0xd2	-46
243	0x24	36
244	0x31	49
245	0x81	-127
246	0x27	39
247	0x09	9
248	0x7f	127
249	0xbc	-68
250	0x71	113
251	0xee	-18
252	0xe7	-25
253	0x81	-127
254	0xa1	-95
255	0x67	103

tfl.pseudo_qconst13 i1 [64, 1, 1, 64]
0	0x4b	75
1	0xdf	-33
2	0x08	8
3	0x49	73
4	0xaf	-81
5	0x61	97
6	0xec	-20
7	0x46	70
8	0xcf	-49
9	0xb6	-74
10	0x3b	59
11	0xdb	-37
12	0xcf	-49
13	0x2c	44
14	0x44	68
15	0xee	-18
16	0xc8	-56
17	0xbd	-67
18	0x86	-122
19	0x35	53
20	0x43	67
21	0x8e	-114
22	0xfb	-5
23	0x6d	109
24	0xa0	-96
25	0xc1	-63
26	0xf4	-12
27	0x2c	44
28	0xd0	-48
29	0xc2	-62
30	0x5d	93
31	0xea	-22
32	0x1f	31
33	0xca	-54
34	0x64	100
35	0x1c	28
36	0x6c	108
37	0xe1	-31
38	0x18	24
39	0xbc	-68
40	0x32	50
41	0x4a	74
42	0x29	41
43	0xff	-1
44	0x38	56
45	0x17	23
46	0x28	40
47	0x24	36
48	0xe8	-24
49	0x49	73
50	0xa4	-92
51	0x07	7
52	0x54	84
53	0xef	-17
54	0x33	51
55	0xd4	-44
56	0x3f	63
57	0xdb	-37
58	0xfb	-5
59	0x70	112
60	0x81	-127
61	0x10	16
62	0x0a	10
63	0xf4	-12
64	0x59	89
65	0xfd	-3
66	0xac	-84
67	0xb0	-80
68	0xd4	-44
69	0xb4	-76
70	0x41	65
71	0xcb	-53
72	0xf8	-8
73	0xfb	-5
74	0x30	48
75	0xd7	-41
76	0x27	39
77	0xca	-54
78	0xf5	-11
79	0xd5	-43
80	0x81	-127
81	0xfb	-5
82	0x25	37
83	0x07	7
84	0xe4	-28
85	0xd2	-46
86	0x89	-119
87	0x1e	30
88	0xcc	-52
89	0xdd	-35
90	0xf4	-12
91	0x17	23
92	0xf2	-14
93	0x2d	45
94	0x06	6
95	0xeb	-21
96	0xaf	-81
97	0x0a	10
98	0xc3	-61
99	0xf7	-9
100	0x46	70
101	0x60	96
102	0xbd	-67
103	0x56	86
104	0x21	33
105	0x97	-105
106	0x5b	91
107	0xe4	-28
108	0xf4	-12
109	0x18	24
110	0x28	40
111	0xf2	-14
112	0x2b	43
113	0x25	37
114	0x46	70
115	0x51	81
116	0x11	17
117	0x0e	14
118	0xb3	-77
119	0xe3	-29
120	0x69	105
121	0x00	0
122	0x91	-111
123	0xad	-83
124	0x0f	15
125	0x11	17
126	0x55	85
127	0x47	71
128	0x44	68
129	0xcb	-53
130	0xf1	-15
131	0xbd	-67
132	0x39	57
133	0x52	82
134	0xd5	-43
135	0xb5	-75
136	0x65	101
137	0xac	-84
138	0xab	-85
139	0x21	33
140	0x49	73
141	0x07	7
142	0xe2	-30
143	0x36	54
144	0x08	8
145	0xb0	-80
146	0xd0	-48
147	0xd7	-41
148	0x29	41
149	0xdf	-33
150	0xde	-34
151	0x31	49
152	0x45	69
153	0x06	6
154	0xbc	-68
155	0xef	-17
156	0x2e	46
157	0x20	32
158	0xc6	-58
159	0x25	37
160	0x11	17
161	0xc1	-63
162	0xf1	-15
163	0x26	38
164	0xfb	-5
165	0x1f	31
166	0xf0	-16
167	0xb6	-74
168	0x1f	31
169	0x1b	27
170	0x17	23
171	0xf4	-12
172	0xca	-54
173	0xfe	-2
174	0x1a	26
175	0xd8	-40
176	0x49	73
177	0x54	84
178	0xda	-38
179	0x12	18
180	0xe0	-32
181	0xf2	-14
182	0xec	-20
183	0x81	-127
184	0x34	52
185	0xc8	-56
186	0xe2	-30
187	0x0a	10
188	0x6c	108
189	0xcd	-51
190	0xe7	-25
191	0xb8	-72
192	0xd7	-41
193	0x81	-127
194	0xcb	-53
195	0x73	115
196	0xe9	-23
197	0xe7	-25
198	0x7c	124
199	0x9d	-99
200	0xf7	-9
201	0xdd	-35
202	0x56	86
203	0xac	-84
204	0x05	5
205	0x39	57
206	0xd7	-41
207	0xbb	-69
208	0xcf	-49
209	0xe3	-29
210	0x2b	43
211	0x53	83
212	0x0e	14
213	0xad	-83
214	0xbc	-68
215	0x8e	-114
216	0x05	5
217	0x0a	10
218	0x49	73
219	0xe4	-28
220	0xb7	-73
221	0x01	1
222	0x1d	29
223	0xd9	-39
224	0x8c	-116
225	0x48	72
226	0x68	104
227	0x2c	44
228	0xfb	-5
229	0x82	-126
230	0xcf	-49
231	0x17	23
232	0xd5	-43
233	0xce	-50
234	0x39	57
235	0x6a	106
236	0x72	114
237	0x39	57
238	0x2d	45
239	0x10	16
240	0x0b	11
241	0x78	120
242	0xe6	-26
243	0xd0	-48
244	0x16	22
245	0xb1	-79
246	0xc5	-59
247	0xfd	-3
248	0x93	-109
249	0x4a	74
250	0x77	119
251	0xb8	-72
252	0x0b	11
253	0xcd	-51
254	0xb5	-75
255	0x3c	60

tfl.pseudo_qconst15 i1 [1, 11, 1, 32]
0	0xc4	-60
1	0x03	3
2	0xec	-20
3	0x39	57
4	0x25	37
5	0x44	68
6	0x01	1
7	0x7f	127
8	0x5d	93
9	0x73	115
10	0xbc	-68
11	0x0c	12
12	0xd5	-43
13	0x7f	127
14	0x49	73
15	0x10	16
16	0xa7	-89
17	0x19	25
18	0x56	86
19	0xe4	-28
20	0xfe	-2
21	0x09	9
22	0xb9	-71
23	0x56	86
24	0x54	84
25	0x85	-123
26	0x52	82
27	0xb7	-73
28	0x1c	28
29	0xf5	-11
30	0x3a	58
31	0xe9	-23
32	0x14	20
33	0x6f	111
34	0x53	83
35	0x94	-108
36	0x20	32
37	0xa0	-96
38	0x4b	75
39	0x2b	43
40	0x02	2
41	0x4f	79
42	0x81	-127
43	0x0c	12
44	0x5d	93
45	0xff	-1
46	0x25	37
47	0xf3	-13
48	0xf8	-8
49	0x55	85
50	0x24	36
51	0xce	-50
52	0x63	99
53	0x17	23
54	0x1d	29
55	0x3a	58
56	0xdd	-35
57	0x7c	124
58	0xf2	-14
59	0x38	56
60	0x27	39
61	0x81	-127
62	0x40	64
63	0x60	96
64	0xee	-18
65	0x74	116
66	0xd6	-42
67	0xcf	-49
68	0xaf	-81
69	0x5b	91
70	0x51	81
71	0x1f	31
72	0x7d	125
73	0x1d	29
74	0xf4	-12
75	0xfb	-5
76	0x53	83
77	0xd9	-39
78	0x07	7
79	0x7f	127
80	0xd0	-48
81	0x47	71
82	0x7d	125
83	0x65	101
84	0xfe	-2
85	0x0d	13
86	0xe4	-28
87	0x35	53
88	0x7f	127
89	0x27	39
90	0xaf	-81
91	0x09	9
92	0x63	99
93	0xda	-38
94	0x63	99
95	0x44	68
96	0xaa	-86
97	0xd6	-42
98	0x81	-127
99	0x91	-111
100	0x19	25
101	0x15	21
102	0x35	53
103	0x71	113
104	0xee	-18
105	0x88	-120
106	0xb1	-79
107	0x12	18
108	0xb7	-73
109	0xe7	-25
110	0x30	48
111	0xd4	-44
112	0xea	-22
113	0x52	82
114	0xed	-19
115	0xdd	-35
116	0xd3	-45
117	0xbb	-69
118	0x99	-103
119	0xa8	-88
120	0x47	71
121	0x5b	91
122	0x3c	60
123	0xcb	-53
124	0xd1	-47
125	0x99	-103
126	0x6c	108
127	0xc5	-59
128	0x83	-125
129	0xed	-19
130	0x4e	78
131	0xd4	-44
132	0x10	16
133	0xe5	-27
134	0xc1	-63
135	0x1e	30
136	0xe8	-24
137	0x17	23
138	0x8d	-115
139	0xb4	-76
140	0xee	-18
141	0x09	9
142	0xbb	-69
143	0xba	-70
144	0xd8	-40
145	0x10	16
146	0x0e	14
147	0x2b	43
148	0xff	-1
149	0xcf	-49
150	0x2d	45
151	0xa5	-91
152	0x4e	78
153	0x2a	42
154	0x2a	42
155	0x12	18
156	0x1a	26
157	0xcc	-52
158	0x17	23
159	0x2a	42
160	0x27	39
161	0xe7	-25
162	0xfb	-5
163	0x7f	127
164	0x8e	-114
165	0x4b	75
166	0x5e	94
167	0xe5	-27
168	0xbf	-65
169	0x1a	26
170	0xad	-83
171	0x81	-127
172	0x81	-127
173	0x1b	27
174	0xe1	-31
175	0x42	66
176	0x7f	127
177	0xfa	-6
178	0xd7	-41
179	0xfc	-4
180	0x41	65
181	0x3e	62
182	0xcf	-49
183	0x6b	107
184	0x3a	58
185	0x88	-120
186	0x55	85
187	0xdf	-33
188	0xfd	-3
189	0xeb	-21
190	0xdd	-35
191	0xea	-22
192	0x54	84
193	0x47	71
194	0x1f	31
195	0x1a	26
196	0x02	2
197	0x50	80
198	0x7f	127
199	0x17	23
200	0xe4	-28
201	0x64	100
202	0x20	32
203	0xd5	-43
204	0x7c	124
205	0xa6	-90
206	0xf5	-11
207	0x39	57
208	0x4f	79
209	0xab	-85
210	0xeb	-21
211	0x04	4
212	0x35	53
213	0xf9	-7
214	0xe1	-31
215	0x5d	93
216	0xc0	-64
217	0x4a	74
218	0x87	-121
219	0x22	34
220	0xc8	-56
221	0x96	-106
222	0x2e	46
223	0x2f	47
224	0xc4	-60
225	0xa1	-95
226	0x43	67
227	0xae	-82
228	0x58	88
229	0xfb	-5
230	0xc8	-56
231	0xd3	-45
232	0xcd	-51
233	0xcc	-52
234	0xda	-38
235	0x46	70
236	0xfe	-2
237	0xc8	-56
238	0x42	66
239	0x6b	107
240	0xc7	-57
241	0x22	34
242	0x81	-127
243	0x4e	78
244	0xa4	-92
245	0x0b	11
246	0x81	-127
247	0xd4	-44
248	0xfe	-2
249	0xb9	-71
250	0x4b	75
251	0x0e	14
252	0x8c	-116
253	0x20	32
254	0xe7	-25
255	0x97	-105

tfl.pseudo_qconst17 i1 [1, 7, 1, 32]
0	0x81	-127
1	0x76	118
2	0xd9	-39
3	0x81	-127
4	0x7f	127
5	0x05	5
6	0x81	-127
7	0x9b	-101
8	0x24	36
9	0x03	3
10	0x27	39
11	0x55	85
12	0xad	-83
13	0x81	-127
14	0x3b	59
15	0xf3	-13
16	0xea	-22
17	0x5c	92
18	0xba	-70
19	0xc8	-56
20	0x3b	59
21	0x04	4
22	0xfa	-6
23	0xc5	-59
24	0xc3	-61
25	0xbe	-66
26	0xc2	-62
27	0x22	34
28	0xea	-22
29	0x24	36
30	0x83	-125
31	0x81	-127
32	0xf1	-15
33	0x81	-127
34	0xb0	-80
35	0xfa	-6
36	0x74	116
37	0x47	71
38	0xcd	-51
39	0x77	119
40	0xbf	-65
41	0x7f	127
42	0x1b	27
43	0x31	49
44	0x91	-111
45	0x0e	14
46	0xa4	-92
47	0x2d	45
48	0xba	-70
49	0xe0	-32
50	0x0a	10
51	0xc8	-56
52	0x81	-127
53	0xda	-38
54	0xf4	-12
55	0xfc	-4
56	0xf7	-9
57	0x3e	62
58	0xea	-22
59	0x66	102
60	0xd8	-40
61	0xde	-34
62	0xb4	-76
63	0xa3	-93
64	0x05	5
65	0x8d	-115
66	0x7f	127
67	0x38	56
68	0x2b	43
69	0x00	0
70	0x98	-104
71	0x0b	11
72	0xe5	-27
73	0x1a	26
74	0xd8	-40
75	0xbe	-66
76	0x3d	61
77	0x4f	79
78	0xec	-20
79	0x81	-127
80	0x91	-111
81	0x04	4
82	0x43	67
83	0xbc	-68
84	0x5f	95
85	0x7f	127
86	0x10	16
87	0xe4	-28
88	0x2a	42
89	0x50	80
90	0x1d	29
91	0x12	18
92	0x18	24
93	0x81	-127
94	0xce	-50
95	0x21	33
96	0x85	-123
97	0x2d	45
98	0x49	73
99	0x24	36
100	0x5b	91
101	0x8d	-115
102	0xdc	-36
103	0xe6	-26
104	0x66	102
105	0x37	55
106	0x7f	127
107	0x7f	127
108	0x9f	-97
109	0x20	32
110	0x59	89
111	0x9e	-98
112	0x46	70
113	0xba	-70
114	0x3e	62
115	0x7f	127
116	0x38	56
117	0x7e	126
118	0x7f	127
119	0x53	83
120	0xf8	-8
121	0x7f	127
122	0x9a	-102
123	0x81	-127
124	0x81	-127
125	0xbc	-68
126	0x33	51
127	0x22	34
128	0xc9	-55
129	0xa7	-89
130	0x3d	61
131	0x4e	78
132	0xe3	-29
133	0xd9	-39
134	0x34	52
135	0xea	-22
136	0xec	-20
137	0xc4	-60
138	0x7d	125
139	0x7f	127
140	0xa5	-91
141	0xc5	-59
142	0x01	1
143	0xf4	-12
144	0x0d	13
145	0x8a	-118
146	0xe5	-27
147	0x41	65
148	0xf5	-11
149	0xc4	-60
150	0xc6	-58
151	0xfe	-2
152	0xc7	-57
153	0x38	56
154	0x7f	127
155	0xa3	-93
156	0x31	49
157	0x01	1
158	0x5a	90
159	0x41	65
160	0xf0	-16
161	0x76	118
162	0x15	21
163	0x13	19
164	0x7d	125
165	0xbb	-69
166	0x87	-121
167	0xc1	-63
168	0x81	-127
169	0xab	-85
170	0x3f	63
171	0x3a	58
172	0x81	-127
173	0x0f	15
174	0x7f	127
175	0x81	-127
176	0xe8	-24
177	0x7f	127
178	0x10	16
179	0xf9	-7
180	0x45	69
181	0xa8	-88
182	0xa1	-95
183	0x13	19
184	0x0f	15
185	0x7a	122
186	0x3d	61
187	0xb1	-79
188	0xdc	-36
189	0xc2	-62
190	0x7f	127
191	0x43	67
192	0x98	-104
193	0x1c	28
194	0xd1	-47
195	0xec	-20
196	0x73	115
197	0x81	-127
198	0xa5	-91
199	0x7f	127
200	0xa5	-91
201	0xcb	-53
202	0xea	-22
203	0x24	36
204	0x30	48
205	0x73	115
206	0x09	9
207	0x88	-120
208	0x7f	127
209	0x9b	-101
210	0x81	-127
211	0x3f	63
212	0x2f	47
213	0xaa	-86
214	0x1e	30
215	0x81	-127
216	0x7f	127
217	0x63	99
218	0x21	33
219	0x1e	30
220	0x56	86
221	0xef	-17
222	0x95	-107
223	0x64	100

tfl.pseudo_qconst19 i1 [64, 1, 1, 32]
0	0x65	101
1	0xea	-22
2	0x4e	78
3	0x81	-127
4	0x23	35
5	0xe3	-29
6	0x37	55
7	0x60	96
8	0x42	66
9	0x23	35
10	0xaf	-81
11	0xaa	-86
12	0xd3	-45
13	0xc4	-60
14	0xb6	-74
15	0x23	35
16	0xf3	-13
17	0x38	56
18	0xee	-18
19	0xd1	-47
20	0xa8	-88
21	0x38	56
22	0x5f	95
23	0xba	-70
24	0x37	55
25	0xfe	-2
26	0x46	70
27	0xb2	-78
28	0x48	72
29	0x78	120
30	0xba	-70
31	0xfc	-4
32	0x5a	90
33	0x43	67
34	0xe1	-31
35	0xf2	-14
36	0x1f	31
37	0x48	72
38	0xd8	-40
39	0x36	54
40	0x9c	-100
41	0x3d	61
42	0xa4	-92
43	0x0f	15
44	0x52	82
45	0xa7	-89
46	0x24	36
47	0xe0	-32
48	0x3a	58
49	0xbc	-68
50	0x11	17
51	0xe0	-32
52	0x96	-106
53	0x94	-108
54	0x7f	127
55	0xc9	-55
56	0x19	25
57	0xc0	-64
58	0x2e	46
59	0x1f	31
60	0xda	-38
61	0x92	-110
62	0x34	52
63	0x19	25
64	0xc2	-62
65	0xda	-38
66	0x99	-103
67	0xd7	-41
68	0x06	6
69	0x4b	75
70	0xef	-17
71	0x3a	58
72	0xf9	-7
73	0x4c	76
74	0x94	-108
75	0x26	38
76	0x12	18
77	0xc0	-64
78	0x0a	10
79	0x73	115
80	0x30	48
81	0x42	66
82	0xd0	-48
83	0x7f	127
84	0x2f	47
85	0x07	7
86	0xfd	-3
87	0x40	64
88	0x6b	107
89	0xdd	-35
90	0xe4	-28
91	0xb3	-77
92	0x8a	-118
93	0x6e	110
94	0xc4	-60
95	0x2b	43
96	0xe1	-31
97	0x4d	77
98	0xd0	-48
99	0xf9	-7
100	0xe1	-31
101	0x1d	29
102	0xe1	-31
103	0xea	-22
104	0xd5	-43
105	0xf6	-10
106	0xea	-22
107	0x12	18
108	0x23	35
109	0x2a	42
110	0xd4	-44
111	0xed	-19
112	0x49	73
113	0xd3	-45
114	0x01	1
115	0x34	52
116	0x17	23
117	0xf8	-8
118	0x01	1
119	0x39	57
120	0xba	-70
121	0xec	-20
122	0x81	-127
123	0x14	20
124	0x51	81
125	0xce	-50
126	0x0a	10
127	0x22	34
128	0xe4	-28
129	0x8c	-116
130	0xfc	-4
131	0x0d	13
132	0x00	0
133	0x20	32
134	0x16	22
135	0x8a	-118
136	0x58	88
137	0xdc	-36
138	0xfe	-2
139	0x7f	127
140	0x15	21
141	0x15	21
142	0xd9	-39
143	0xd7	-41
144	0x6a	106
145	0x64	100
146	0xf4	-12
147	0x17	23
148	0x52	82
149	0x37	55
150	0x6d	109
151	0x56	86
152	0x03	3
153	0x00	0
154	0x64	100
155	0x03	3
156	0xae	-82
157	0x01	1
158	0x50	80
159	0x30	48
160	0x28	40
161	0xeb	-21
162	0x52	82
163	0x3d	61
164	0xbf	-65
165	0xed	-19
166	0x8f	-113
167	0xde	-34
168	0x0a	10
169	0xd3	-45
170	0x27	39
171	0xa7	-89
172	0xf3	-13
173	0x34	52
174	0x10	16
175	0x01	1
176	0xce	-50
177	0xc9	-55
178	0x7f	127
179	0xee	-18
180	0x2c	44
181	0x14	20
182	0x08	8
183	0xf9	-7
184	0x50	80
185	0x12	18
186	0x92	-110
187	0x99	-103
188	0x96	-106
189	0xf8	-8
190	0x0a	10
191	0xa3	-93
192	0xb7	-73
193	0x56	86
194	0x36	54
195	0xe3	-29
196	0xfd	-3
197	0xc0	-64
198	0xc5	-59
199	0x41	65
200	0x51	81
201	0xa3	-93
202	0x05	5
203	0x17	23
204	0xd1	-47
205	0x81	-127
206	0x69	105
207	0xda	-38
208	0x15	21
209	0xff	-1
210	0x4a	74
211	0x1b	27
212	0x69	105
213	0xc2	-62
214	0x30	48
215	0xcb	-53
216	0x1a	26
217	0x59	89
218	0x0d	13
219	0x0f	15
220	0x56	86
221	0x0f	15
222	0xb3	-77
223	0x44	68
224	0x36	54
225	0x26	38
226	0x36	54
227	0xda	-38
228	0x50	80
229	0xeb	-21
230	0xf7	-9
231	0xe9	-23
232	0xe2	-30
233	0xd2	-46
234	0x19	25
235	0xa9	-87
236	0xc4	-60
237	0xb4	-76
238	0xcf	-49
239	0x08	8
240	0x2a	42
241	0x64	100
242	0x24	36
243	0xff	-1
244	0x07	7
245	0x08	8
246	0xe0	-32
247	0xb8	-72
248	0xbf	-65
249	0x58	88
250	0x3d	61
251	0x28	40
252	0xdc	-36
253	0x30	48
254	0xaf	-81
255	0x7f	127

tfl.pseudo_qconst21 i1 [1, 5, 1, 32]
0	0xeb	-21
1	0x92	-110
2	0x3d	61
3	0x0c	12
4	0x04	4
5	0x7f	127
6	0x34	52
7	0x2d	45
8	0xc8	-56
9	0xb2	-78
10	0x83	-125
11	0x0e	14
12	0x22	34
13	0x7f	127
14	0x48	72
15	0x81	-127
16	0x91	-111
17	0x7f	127
18	0x3e	62
19	0x81	-127
20	0x7b	123
21	0x5b	91
22	0xef	-17
23	0x81	-127
24	0x7d	125
25	0xf2	-14
26	0x59	89
27	0x0a	10
28	0x81	-127
29	0xa7	-89
30	0x54	84
31	0xab	-85
32	0xb5	-75
33	0x4b	75
34	0x4c	76
35	0xe1	-31
36	0x51	81
37	0x71	113
38	0xa6	-90
39	0xe9	-23
40	0x74	116
41	0x3b	59
42	0x6e	110
43	0x55	85
44	0x81	-127
45	0x25	37
46	0x02	2
47	0x92	-110
48	0xb0	-80
49	0x3d	61
50	0x07	7
51	0x9a	-102
52	0xdd	-35
53	0x98	-104
54	0x27	39
55	0xa5	-91
56	0x17	23
57	0xe2	-30
58	0x6d	109
59	0x7f	127
60	0x8d	-115
61	0x04	4
62	0x7f	127
63	0x92	-110
64	0x7f	127
65	0x81	-127
66	0x39	57
67	0x3f	63
68	0xd5	-43
69	0x5f	95
70	0x7f	127
71	0x74	116
72	0x43	67
73	0x07	7
74	0x7f	127
75	0xfb	-5
76	0x7b	123
77	0x33	51
78	0xdb	-37
79	0xb7	-73
80	0x7f	127
81	0x02	2
82	0x56	86
83	0x04	4
84	0x9c	-100
85	0x81	-127
86	0x66	102
87	0x70	112
88	0xad	-83
89	0x81	-127
90	0x3c	60
91	0x67	103
92	0xba	-70
93	0xbd	-67
94	0xd8	-40
95	0x59	89
96	0xcc	-52
97	0x68	104
98	0x7f	127
99	0x81	-127
100	0xe6	-26
101	0xe1	-31
102	0x21	33
103	0x7f	127
104	0x4e	78
105	0x7f	127
106	0x1f	31
107	0x81	-127
108	0x8a	-118
109	0x68	104
110	0xc8	-56
111	0x83	-125
112	0xcf	-49
113	0xeb	-21
114	0xeb	-21
115	0x68	104
116	0x7f	127
117	0xff	-1
118	0x7f	127
119	0x26	38
120	0x8b	-117
121	0x00	0
122	0x81	-127
123	0x8a	-118
124	0xed	-19
125	0x81	-127
126	0xe1	-31
127	0x7f	127
128	0xbc	-68
129	0xb5	-75
130	0xb3	-77
131	0x99	-103
132	0x7f	127
133	0x2e	46
134	0xcb	-53
135	0xc4	-60
136	0x7f	127
137	0x35	53
138	0x2e	46
139	0xbf	-65
140	0xf5	-11
141	0x2d	45
142	0x81	-127
143	0x58	88
144	0x74	116
145	0x6e	110
146	0x7f	127
147	0x05	5
148	0x62	98
149	0xb4	-76
150	0x68	104
151	0x57	87
152	0x81	-127
153	0x50	80
154	0xa0	-96
155	0x76	118
156	0x54	84
157	0xb3	-77
158	0x0e	14
159	0x18	24

tfl.pseudo_qconst23 i1 [32, 5, 1, 40]
0	0x16	22
1	0xb1	-79
2	0x33	51
3	0x01	1
4	0xb0	-80
5	0x16	22
6	0xda	-38
7	0xa8	-88
8	0xf3	-13
9	0x25	37
10	0x11	17
11	0xd0	-48
12	0xda	-38
13	0x43	67
14	0x34	52
15	0x03	3
16	0x0f	15
17	0x0b	11
18	0xe1	-31
19	0xcb	-53
20	0xd2	-46
21	0xd9	-39
22	0x0a	10
23	0x31	49
24	0x16	22
25	0x1a	26
26	0x12	18
27	0x06	6
28	0x1d	29
29	0x2a	42
30	0x14	20
31	0x12	18
32	0xe4	-28
33	0x4e	78
34	0x1c	28
35	0xde	-34
36	0x20	32
37	0x40	64
38	0x4d	77
39	0x1b	27
40	0xea	-22
41	0x02	2
42	0x02	2
43	0xee	-18
44	0xf7	-9
45	0x1f	31
46	0xe0	-32
47	0xb6	-74
48	0xb4	-76
49	0x17	23
50	0xf6	-10
51	0xff	-1
52	0xe5	-27
53	0x25	37
54	0x5d	93
55	0xe5	-27
56	0x24	36
57	0xdf	-33
58	0xdd	-35
59	0xfc	-4
60	0xe2	-30
61	0xf5	-11
62	0x0e	14
63	0x17	23
64	0x0d	13
65	0x1d	29
66	0xb8	-72
67	0xfe	-2
68	0x20	32
69	0x01	1
70	0xcf	-49
71	0xf8	-8
72	0x0c	12
73	0x17	23
74	0x2a	42
75	0x16	22
76	0x3f	63
77	0x05	5
78	0x2d	45
79	0x50	80
80	0x2b	43
81	0xe4	-28
82	0xf2	-14
83	0xbc	-68
84	0xbe	-66
85	0xfe	-2
86	0xf1	-15
87	0xd6	-42
88	0x1e	30
89	0x03	3
90	0xf9	-7
91	0xc9	-55
92	0xc0	-64
93	0xf4	-12
94	0x47	71
95	0x0d	13
96	0x19	25
97	0xee	-18
98	0xf0	-16
99	0xba	-70
100	0x2a	42
101	0xe6	-26
102	0x24	36
103	0x0e	14
104	0x17	23
105	0x0b	11
106	0xc9	-55
107	0xc8	-56
108	0x18	24
109	0xf8	-8
110	0x19	25
111	0x22	34
112	0x04	4
113	0x18	24
114	0xdb	-37
115	0x24	36
116	0x0a	10
117	0x6b	107
118	0x38	56
119	0x7f	127
120	0xec	-20
121	0xb0	-80
122	0xf5	-11
123	0x0c	12
124	0x03	3
125	0xd9	-39
126	0x10	16
127	0x9f	-97
128	0xd4	-44
129	0x0f	15
130	0x0f	15
131	0xdf	-33
132	0x2e	46
133	0x1a	26
134	0xe2	-30
135	0x02	2
136	0xca	-54
137	0x3b	59
138	0x2a	42
139	0x2a	42
140	0xe2	-30
141	0x09	9
142	0x40	64
143	0xdf	-33
144	0xc6	-58
145	0xe7	-25
146	0x0e	14
147	0xe9	-23
148	0xfe	-2
149	0xff	-1
150	0xe7	-25
151	0xba	-70
152	0x36	54
153	0x01	1
154	0x41	65
155	0xfc	-4
156	0xf8	-8
157	0x1d	29
158	0x26	38
159	0x5e	94
160	0x12	18
161	0x16	22
162	0xdc	-36
163	0x13	19
164	0xbe	-66
165	0x1f	31
166	0xfe	-2
167	0xcc	-52
168	0xc4	-60
169	0x0a	10
170	0xd7	-41
171	0xbe	-66
172	0xb9	-71
173	0xd7	-41
174	0x17	23
175	0xdb	-37
176	0xc1	-63
177	0xf1	-15
178	0xed	-19
179	0x3d	61
180	0xdd	-35
181	0xf1	-15
182	0xfa	-6
183	0xf0	-16
184	0x37	55
185	0xe9	-23
186	0xcd	-51
187	0xda	-38
188	0x41	65
189	0xe5	-27
190	0x32	50
191	0x1e	30
192	0x1f	31
193	0xfb	-5
194	0xcd	-51
195	0xdc	-36
196	0xd5	-43
197	0x27	39
198	0x03	3
199	0x0f	15
200	0x1d	29
201	0x15	21
202	0x30	48
203	0x43	67
204	0x19	25
205	0xdc	-36
206	0xdd	-35
207	0x3a	58
208	0x2b	43
209	0x26	38
210	0xb6	-74
211	0xec	-20
212	0x24	36
213	0xfe	-2
214	0x3a	58
215	0xd4	-44
216	0xe3	-29
217	0xca	-54
218	0xae	-82
219	0xe8	-24
220	0xf4	-12
221	0x03	3
222	0xeb	-21
223	0xa7	-89
224	0xd9	-39
225	0x3c	60
226	0xd5	-43
227	0x15	21
228	0xe6	-26
229	0x54	84
230	0xc4	-60
231	0xf7	-9
232	0x2b	43
233	0xd1	-47
234	0x15	21
235	0xdf	-33
236	0xf2	-14
237	0x04	4
238	0x49	73
239	0x43	67
240	0x51	81
241	0x0e	14
242	0x17	23
243	0x24	36
244	0x17	23
245	0xbf	-65
246	0xb3	-77
247	0xdd	-35
248	0x1d	29
249	0xd9	-39
250	0xbb	-69
251	0xab	-85
252	0x34	52
253	0x21	33
254	0x3e	62
255	0x10	16

tfl.pseudo_qconst24 i1 [1, 22, 1, 64] scale=0.03630053 zero_point=-128
0	0x80	0.0
1	0x80	0.0
2	0x80	0.0
3	0x80	0.0
4	0x80	0.0
5	0x80	0.0
6	0x80	0.0
7	0x80	0.0
8	0x80	0.0
9	0x80	0.0
10	0x80	0.0
11	0x80	0.0
12	0x80	0.0
13	0x80	0.0
14	0x80	0.0
15	0x80	0.0
16	0x80	0.0
17	0x80	0.0
18	0x80	0.0
19	0x80	0.0
20	0x80	0.0
21	0x80	0.0
22	0x80	0.0
23	0x80	0.0
24	0x80	0.0
25	0x80	0.0
26	0x80	0.0
27	0x80	0.0
28	0x80	0.0
29	0x80	0.0
30	0x80	0.0
31	0x80	0.0
32	0x80	0.0
33	0x80	0.0
34	0x80	0.0
35	0x80	0.0
36	0x80	0.0
37	0x80	0.0
38	0x80	0.0
39	0x80	0.0
40	0x80	0.0
41	0x80	0.0
42	0x80	0.0
43	0x80	0.0
44	0x80	0.0
45	0x80	0.0
46	0x80	0.0
47	0x80	0.0
48	0x80	0.0
49	0x80	0.0
50	0x80	0.0
51	0x80	0.0
52	0x80	0.0
53	0x80	0.0
54	0x80	0.0
55	0x80	0.0
56	0x80	0.0
57	0x80	0.0
58	0x80	0.0
59	0x80	0.0
60	0x80	0.0
61	0x80	0.0
62	0x80	0.0
63	0x80	0.0
64	0x80	0.0
65	0x80	0.0
66	0x80	0.0
67	0x80	0.0
68	0x80	0.0
69	0x80	0.0
70	0x80	0.0
71	0x80	0.0
72	0x80	0.0
73	0x80	0.0
74	0x80	0.0
75	0x80	0.0
76	0x80	0.0
77	0x80	0.0
78	0x80	0.0
79	0x80	0.0
80	0x80	0.0
81	0x80	0.0
82	0x80	0.0
83	0x80	0.0
84	0x80	0.0
85	0x80	0.0
86	0x80	0.0
87	0x80	0.0
88	0x80	0.0
89	0x80	0.0
90	0x80	0.0
91	0x80	0.0
92	0x80	0.0
93	0x80	0.0
94	0x80	0.0
95	0x80	0.0
96	0x80	0.0
97	0x80	0.0
98	0x80	0.0
99	0x80	0.0
100	0x80	0.0
101	0x80	0.0
102	0x80	0.0
103	0x80	0.0
104	0x80	0.0
105	0x80	0.0
106	0x80	0.0
107	0x80	0.0
108	0x80	0.0
109	0x80	0.0
110	0x80	0.0
111	0x80	0.0
112	0x80	0.0
113	0x80	0.0
114	0x80	0.0
115	0x80	0.0
116	0x80	0.0
117	0x80	0.0
118	0x80	0.0
119	0x80	0.0
120	0x80	0.0
121	0x80	0.0
122	0x80	0.0
123	0x80	0.0
124	0x80	0.0
125	0x80	0.0
126	0x80	0.0
127	0x80	0.0
128	0x80	0.0
129	0x80	0.0
130	0x80	0.0
131	0x80	0.0
132	0x80	0.0
133	0x80	0.0
134	0x80	0.0
135	0x80	0.0
136	0x80	0.0
137	0x80	0.0
138	0x80	0.0
139	0x80	0.0
140	0x80	0.0
141	0x80	0.0
142	0x80	0.0
143	0x80	0.0
144	0x80	0.0
145	0x80	0.0
146	0x80	0.0
147	0x80	0.0
148	0x80	0.0
149	0x80	0.0
150	0x80	0.0
151	0x80	0.0
152	0x80	0.0
153	0x80	0.0
154	0x80	0.0
155	0x80	0.0
156	0x80	0.0
157	0x80	0.0
158	0x80	0.0
159	0x80	0.0
160	0x80	0.0
161	0x80	0.0
162	0x80	0.0
163	0x80	0.0
164	0x80	0.0
165	0x80	0.0
166	0x80	0.0
167	0x80	0.0
168	0x80	0.0
169	0x80	0.0
170	0x80	0.0
171	0x80	0.0
172	0x80	0.0
173	0x80	0.0
174	0x80	0.0
175	0x80	0.0
176	0x80	0.0
177	0x80	0.0
178	0x80	0.0
179	0x80	0.0
180	0x80	0.0
181	0x80	0.0
182	0x80	0.0
183	0x80	0.0
184	0x80	0.0
185	0x80	0.0
186	0x80	0.0
187	0x80	0.0
188	0x80	0.0
189	0x80	0.0
190	0x80	0.0
191	0x80	0.0
192	0x80	0.0
193	0x80	0.0
194	0x80	0.0
195	0x80	0.0
196	0x80	0.0
197	0x80	0.0
198	0x80	0.0
199	0x80	0.0
200	0x80	0.0
201	0x80	0.0
202	0x80	0.0
203	0x80	0.0
204	0x80	0.0
205	0x80	0.0
206	0x80	0.0
207	0x80	0.0
208	0x80	0.0
209	0x80	0.0
210	0x80	0.0
211	0x80	0.0
212	0x80	0.0
213	0x80	0.0
214	0x80	0.0
215	0x80	0.0
216	0x80	0.0
217	0x80	0.0
218	0x80	0.0
219	0x80	0.0
220	0x80	0.0
221	0x80	0.0
222	0x80	0.0
223	0x80	0.0
224	0x80	0.0
225	0x80	0.0
226	0x80	0.0
227	0x80	0.0
228	0x80	0.0
229	0x80	0.0
230	0x80	0.0
231	0x80	0.0
232	0x80	0.0
233	0x80	0.0
234	0x80	0.0
235	0x80	0.0
236	0x80	0.0
237	0x80	0.0
238	0x80	0.0
239	0x80	0.0
240	0x80	0.0
241	0x80	0.0
242	0x80	0.0
243	0x80	0.0
244	0x80	0.0
245	0x80	0.0
246	0x80	0.0
247	0x80	0.0
248	0x80	0.0
249	0x80	0.0
250	0x80	0.0
251	0x80	0.0
252	0x80	0.0
253	0x80	0.0
254	0x80	0.0
255	0x80	0.0

tfl.pseudo_qconst25 i1 [1, 16, 1, 64] scale=0.032727785 zero_point=-128
0	0x80	0.0
1	0x80	0.0
2	0x80	0.0
3	0x80	0.0
4	0x80	0.0
5	0x80	0.0
6	0x80	0.0
7	0x80	0.0
8	0x80	0.0
9	0x80	0.0
10	0x80	0.0
11	0x80	0.0
12	0x80	0.0
13	0x80	0.0
14	0x80	0.0
15	0x80	0.0
16	0x80	0.0
17	0x80	0.0
18	0x80	0.0
19	0x80	0.0
20	0x80	0.0
21	0x80	0.0
22	0x80	0.0
23	0x80	0.0
24	0x80	0.0
25	0x80	0.0
26	0x80	0.0
27	0x80	0.0
28	0x80	0.0
29	0x80	0.0
30	0x80	0.0
31	0x80	0.0
32	0x80	0.0
33	0x80	0.0
34	0x80	0.0
35	0x80	0.0
36	0x80	0.0
37	0x80	0.0
38	0x80	0.0
39	0x80	0.0
40	0x80	0.0
41	0x80	0.0
42	0x80	0.0
43	0x80	0.0
44	0x80	0.0
45	0x80	0.0
46	0x80	0.0
47	0x80	0.0
48	0x80	0.0
49	0x80	0.0
50	0x80	0.0
51	0x80	0.0
52	0x80	0.0
53	0x80	0.0
54	0x80	0.0
55	0x80	0.0
56	0x80	0.0
57	0x80	0.0
58	0x80	0.0
59	0x80	0.0
60	0x80	0.0
61	0x80	0.0
62	0x80	0.0
63	0x80	0.0
64	0x80	0.0
65	0x80	0.0
66	0x80	0.0
67	0x80	0.0
68	0x80	0.0
69	0x80	0.0
70	0x80	0.0
71	0x80	0.0
72	0x80	0.0
73	0x80	0.0
74	0x80	0.0
75	0x80	0.0
76	0x80	0.0
77	0x80	0.0
78	0x80	0.0
79	0x80	0.0
80	0x80	0.0
81	0x80	0.0
82	0x80	0.0
83	0x80	0.0
84	0x80	0.0
85	0x80	0.0
86	0x80	0.0
87	0x80	0.0
88	0x80	0.0
89	0x80	0.0
90	0x80	0.0
91	0x80	0.0
92	0x80	0.0
93	0x80	0.0
94	0x80	0.0
95	0x80	0.0
96	0x80	0.0
97	0x80	0.0
98	0x80	0.0
99	0x80	0.0
100	0x80	0.0
101	0x80	0.0
102	0x80	0.0
103	0x80	0.0
104	0x80	0.0
105	0x80	0.0
106	0x80	0.0
107	0x80	0.0
108	0x80	0.0
109	0x80	0.0
110	0x80	0.0
111	0x80	0.0
112	0x80	0.0
113	0x80	0.0
114	0x80	0.0
115	0x80	0.0
116	0x80	0.0
117	0x80	0.0
118	0x80	0.0
119	0x80	0.0
120	0x80	0.0
121	0x80	0.0
122	0x80	0.0
123	0x80	0.0
124	0x80	0.0
125	0x80	0.0
126	0x80	0.0
127	0x80	0.0
128	0x80	0.0
129	0x80	0.0
130	0x80	0.0
131	0x80	0.0
132	0x80	0.0
133	0x80	0.0
134	0x80	0.0
135	0x80	0.0
136	0x80	0.0
137	0x80	0.0
138	0x80	0.0
139	0x80	0.0
140	0x80	0.0
141	0x80	0.0
142	0x80	0.0
143	0x80	0.0
144	0x80	0.0
145	0x80	0.0
146	0x80	0.0
147	0x80	0.0
148	0x80	0.0
149	0x80	0.0
150	0x80	0.0
151	0x80	0.0
152	0x80	0.0
153	0x80	0.0
154	0x80	0.0
155	0x80	0.0
156	0x80	0.0
157	0x80	0.0
158	0x80	0.0
159	0x80	0.0
160	0x80	0.0
161	0x80	0.0
162	0x80	0.0
163	0x80	0.0
164	0x80	0.0
165	0x80	0.0
166	0x80	0.0
167	0x80	0.0
168	0x80	0.0
169	0x80	0.0
170	0x80	0.0
171	0x80	0.0
172	0x80	0.0
173	0x80	0.0
174	0x80	0.0
175	0x80	0.0
176	0x80	0.0
177	0x80	0.0
178	0x80	0.0
179	0x80	0.0
180	0x80	0.0
181	0x80	0.0
182	0x80	0.0
183	0x80	0.0
184	0x80	0.0
185	0x80	0.0
186	0x80	0.0
187	0x80	0.0
188	0x80	0.0
189	0x80	0.0
190	0x80	0.0
191	0x80	0.0
192	0x80	0.0
193	0x80	0.0
194	0x80	0.0
195	0x80	0.0
196	0x80	0.0
197	0x80	0.0
198	0x80	0.0
199	0x80	0.0
200	0x80	0.0
201	0x80	0.0
202	0x80	0.0
203	0x80	0.0
204	0x80	0.0
205	0x80	0.0
206	0x80	0.0
207	0x80	0.0
208	0x80	0.0
209	0x80	0.0
210	0x80	0.0
211	0x80	0.0
212	0x80	0.0
213	0x80	0.0
214	0x80	0.0
215	0x80	0.0
216	0x80	0.0
217	0x80	0.0
218	0x80	0.0
219	0x80	0.0
220	0x80	0.0
221	0x80	0.0
222	0x80	0.0
223	0x80	0.0
224	0x80	0.0
225	0x80	0.0
226	0x80	0.0
227	0x80	0.0
228	0x80	0.0
229	0x80	0.0
230	0x80	0.0
231	0x80	0.0
232	0x80	0.0
233	0x80	0.0
234	0x80	0.0
235	0x80	0.0
236	0x80	0.0
237	0x80	0.0
238	0x80	0.0
239	0x80	0.0
240	0x80	0.0
241	0x80	0.0
242	0x80	0.0
243	0x80	0.0
244	0x80	0.0
245	0x80	0.0
246	0x80	0.0
247	0x80	0.0
248	0x80	0.0
249	0x80	0.0
250	0x80	0.0
251	0x80	0.0
252	0x80	0.0
253	0x80	0.0
254	0x80	0.0
255	0x80	0.0

tfl.pseudo_qconst26 i1 [1, 2, 1, 40] scale=0.101960786 zero_point=-128
0	0x80	0.0
1	0x80	0.0
2	0x80	0.0
3	0x80	0.0
4	0x80	0.0
5	0x80	0.0
6	0x80	0.0
7	0x80	0.0
8	0x80	0.0
9	0x80	0.0
10	0x80	0.0
11	0x80	0.0
12	0x80	0.0
13	0x80	0.0
14	0x80	0.0
15	0x80	0.0
16	0x80	0.0
17	0x80	0.0
18	0x80	0.0
19	0x80	0.0
20	0x80	0.0
21	0x80	0.0
22	0x80	0.0
23	0x80	0.0
24	0x80	0.0
25	0x80	0.0
26	0x80	0.0
27	0x80	0.0
28	0x80	0.0
29	0x80	0.0
30	0x80	0.0
31	0x80	0.0
32	0x80	0.0
33	0x80	0.0
34	0x80	0.0
35	0x80	0.0
36	0x80	0.0
37	0x80	0.0
38	0x80	0.0
39	0x80	0.0
40	0x80	0.0
41	0x80	0.0
42	0x80	0.0
43	0x80	0.0
44	0x80	0.0
45	0x80	0.0
46	0x80	0.0
47	0x80	0.0
48	0x80	0.0
49	0x80	0.0
50	0x80	0.0
51	0x80	0.0
52	0x80	0.0
53	0x80	0.0
54	0x80	0.0
55	0x80	0.0
56	0x80	0.0
57	0x80	0.0
58	0x80	0.0
59	0x80	0.0
60	0x80	0.0
61	0x80	0.0
62	0x80	0.0
63	0x80	0.0
64	0x80	0.0
65	0x80	0.0
66	0x80	0.0
67	0x80	0.0
68	0x80	0.0
69	0x80	0.0
70	0x80	0.0
71	0x80	0.0
72	0x80	0.0
73	0x80	0.0
74	0x80	0.0
75	0x80	0.0
76	0x80	0.0
77	0x80	0.0
78	0x80	0.0
79	0x80	0.0

tfl.pseudo_qconst27 i1 [1, 4, 1, 32] scale=0.47490433 zero_point=-128
0	0x80	0.0
1	0x80	0.0
2	0x80	0.0
3	0x80	0.0
4	0x80	0.0
5	0x80	0.0
6	0x80	0.0
7	0x80	0.0
8	0x80	0.0
9	0x80	0.0
10	0x80	0.0
11	0x80	0.0
12	0x80	0.0
13	0x80	0.0
14	0x80	0.0
15	0x80	0.0
16	0x80	0.0
17	0x80	0.0
18	0x80	0.0
19	0x80	0.0
20	0x80	0.0
21	0x80	0.0
22	0x80	0.0
23	0x80	0.0
24	0x80	0.0
25	0x80	0.0
26	0x80	0.0
27	0x80	0.0
28	0x80	0.0
29	0x80	0.0
30	0x80	0.0
31	0x80	0.0
32	0x80	0.0
33	0x80	0.0
34	0x80	0.0
35	0x80	0.0
36	0x80	0.0
37	0x80	0.0
38	0x80	0.0
39	0x80	0.0
40	0x80	0.0
41	0x80	0.0
42	0x80	0.0
43	0x80	0.0
44	0x80	0.0
45	0x80	0.0
46	0x80	0.0
47	0x80	0.0
48	0x80	0.0
49	0x80	0.0
50	0x80	0.0
51	0x80	0.0
52	0x80	0.0
53	0x80	0.0
54	0x80	0.0
55	0x80	0.0
56	0x80	0.0
57	0x80	0.0
58	0x80	0.0
59	0x80	0.0
60	0x80	0.0
61	0x80	0.0
62	0x80	0.0
63	0x80	0.0
64	0x80	0.0
65	0x80	0.0
66	0x80	0.0
67	0x80	0.0
68	0x80	0.0
69	0x80	0.0
70	0x80	0.0
71	0x80	0.0
72	0x80	0.0
73	0x80	0.0
74	0x80	0.0
75	0x80	0.0
76	0x80	0.0
77	0x80	0.0
78	0x80	0.0
79	0x80	0.0
80	0x80	0.0
81	0x80	0.0
82	0x80	0.0
83	0x80	0.0
84	0x80	0.0
85	0x80	0.0
86	0x80	0.0
87	0x80	0.0
88	0x80	0.0
89	0x80	0.0
90	0x80	0.0
91	0x80	0.0
92	0x80	0.0
93	0x80	0.0
94	0x80	0.0
95	0x80	0.0
96	0x80	0.0
97	0x80	0.0
98	0x80	0.0
99	0x80	0.0
100	0x80	0.0
101	0x80	0.0
102	0x80	0.0
103	0x80	0.0
104	0x80	0.0
105	0x80	0.0
106	0x80	0.0
107	0x80	0.0
108	0x80	0.0
109	0x80	0.0
110	0x80	0.0
111	0x80	0.0
112	0x80	0.0
113	0x80	0.0
114	0x80	0.0
115	0x80	0.0
116	0x80	0.0
117	0x80	0.0
118	0x80	0.0
119	0x80	0.0
120	0x80	0.0
121	0x80	0.0
122	0x80	0.0
123	0x80	0.0
124	0x80	0.0
125	0x80	0.0
126	0x80	0.0
127	0x80	0.0

tfl.pseudo_qconst28 i1 [1, 10, 1, 64] scale=0.035955675 zero_point=-128
0	0x80	0.0
1	0x80	0.0
2	0x80	0.0
3	0x80	0.0
4	0x80	0.0
5	0x80	0.0
6	0x80	0.0
7	0x80	0.0
8	0x80	0.0
9	0x80	0.0
10	0x80	0.0
11	0x80	0.0
12	0x80	0.0
13	0x80	0.0
14	0x80	0.0
15	0x80	0.0
16	0x80	0.0
17	0x80	0.0
18	0x80	0.0
19	0x80	0.0
20	0x80	0.0
21	0x80	0.0
22	0x80	0.0
23	0x80	0.0
24	0x80	0.0
25	0x80	0.0
26	0x80	0.0
27	0x80	0.0
28	0x80	0.0
29	0x80	0.0
30	0x80	0.0
31	0x80	0.0
32	0x80	0.0
33	0x80	0.0
34	0x80	0.0
35	0x80	0.0
36	0x80	0.0
37	0x80	0.0
38	0x80	0.0
39	0x80	0.0
40	0x80	0.0
41	0x80	0.0
42	0x80	0.0
43	0x80	0.0
44	0x80	0.0
45	0x80	0.0
46	0x80	0.0
47	0x80	0.0
48	0x80	0.0
49	0x80	0.0
50	0x80	0.0
51	0x80	0.0
52	0x80	0.0
53	0x80	0.0
54	0x80	0.0
55	0x80	0.0
56	0x80	0.0
57	0x80	0.0
58	0x80	0.0
59	0x80	0.0
60	0x80	0.0
61	0x80	0.0
62	0x80	0.0
63	0x80	0.0
64	0x80	0.0
65	0x80	0.0
66	0x80	0.0
67	0x80	0.0
68	0x80	0.0
69	0x80	0.0
70	0x80	0.0
71	0x80	0.0
72	0x80	0.0
73	0x80	0.0
74	0x80	0.0
75	0x80	0.0
76	0x80	0.0
77	0x80	0.0
78	0x80	0.0
79	0x80	0.0
80	0x80	0.0
81	0x80	0.0
82	0x80	0.0
83	0x80	0.0
84	0x80	0.0
85	0x80	0.0
86	0x80	0.0
87	0x80	0.0
88	0x80	0.0
89	0x80	0.0
90	0x80	0.0
91	0x80	0.0
92	0x80	0.0
93	0x80	0.0
94	0x80	0.0
95	0x80	0.0
96	0x80	0.0
97	0x80	0.0
98	0x80	0.0
99	0x80	0.0
100	0x80	0.0
101	0x80	0.0
102	0x80	0.0
103	0x80	0.0
104	0x80	0.0
105	0x80	0.0
106	0x80	0.0
107	0x80	0.0
108	0x80	0.0
109	0x80	0.0
110	0x80	0.0
111	0x80	0.0
112	0x80	0.0
113	0x80	0.0
114	0x80	0.0
115	0x80	0.0
116	0x80	0.0
117	0x80	0.0
118	0x80	0.0
119	0x80	0.0
120	0x80	0.0
121	0x80	0.0
122	0x80	0.0
123	0x80	0.0
124	0x80	0.0
125	0x80	0.0
126	0x80	0.0
127	0x80	0.0
128	0x80	0.0
129	0x80	0.0
130	0x80	0.0
131	0x80	0.0
132	0x80	0.0
133	0x80	0.0
134	0x80	0.0
135	0x80	0.0
136	0x80	0.0
137	0x80	0.0
138	0x80	0.0
139	0x80	0.0
140	0x80	0.0
141	0x80	0.0
142	0x80	0.0
143	0x80	0.0
144	0x80	0.0
145	0x80	0.0
146	0x80	0.0
147	0x80	0.0
148	0x80	0.0
149	0x80	0.0
150	0x80	0.0
151	0x80	0.0
152	0x80	0.0
153	0x80	0.0
154	0x80	0.0
155	0x80	0.0
156	0x80	0.0
157	0x80	0.0
158	0x80	0.0
159	0x80	0.0
160	0x80	0.0
161	0x80	0.0
162	0x80	0.0
163	0x80	0.0
164	0x80	0.0
165	0x80	0.0
166	0x80	0.0
167	0x80	0.0
168	0x80	0.0
169	0x80	0.0
170	0x80	0.0
171	0x80	0.0
172	0x80	0.0
173	0x80	0.0
174	0x80	0.0
175	0x80	0.0
176	0x80	0.0
177	0x80	0.0
178	0x80	0.0
179	0x80	0.0
180	0x80	0.0
181	0x80	0.0
182	0x80	0.0
183	0x80	0.0
184	0x80	0.0
185	0x80	0.0
186	0x80	0.0
187	0x80	0.0
188	0x80	0.0
189	0x80	0.0
190	0x80	0.0
191	0x80	0.0
192	0x80	0.0
193	0x80	0.0
194	0x80	0.0
195	0x80	0.0
196	0x80	0.0
197	0x80	0.0
198	0x80	0.0
199	0x80	0.0
200	0x80	0.0
201	0x80	0.0
202	0x80	0.0
203	0x80	0.0
204	0x80	0.0
205	0x80	0.0
206	0x80	0.0
207	0x80	0.0
208	0x80	0.0
209	0x80	0.0
210	0x80	0.0
211	0x80	0.0
212	0x80	0.0
213	0x80	0.0
214	0x80	0.0
215	0x80	0.0
216	0x80	0.0
217	0x80	0.0
218	0x80	0.0
219	0x80	0.0
220	0x80	0.0
221	0x80	0.0
222	0x80	0.0
223	0x80	0.0
224	0x80	0.0
225	0x80	0.0
226	0x80	0.0
227	0x80	0.0
228	0x80	0.0
229	0x80	0.0
230	0x80	0.0
231	0x80	0.0
232	0x80	0.0
233	0x80	0.0
234	0x80	0.0
235	0x80	0.0
236	0x80	0.0
237	0x80	0.0
238	0x80	0.0
239	0x80	0.0
240	0x80	0.0
241	0x80	0.0
242	0x80	0.0
243	0x80	0.0
244	0x80	0.0
245	0x80	0.0
246	0x80	0.0
247	0x80	0.0
248	0x80	0.0
249	0x80	0.0
250	0x80	0.0
251	0x80	0.0
252	0x80	0.0
253	0x80	0.0
254	0x80	0.0
255	0x80	0.0
