aleesa.tflite (tflite, 206964 bytes, 9 tensors)

arith.constant f4 [1, 32]
-0.35388967 -0.02385405 -0.34198377 0.032358002 0.16081272 -0.04417041 -0.33686787 -0.33769187
0.22126506 0.009018978 -0.3398811 -0.15324101 0.12673071 -0.36338434 -0.050041493 -0.3632855
0.07064277 0.061988432 0.16918486 0.06609682 0.021979319 -0.08006394 0.23513333 -0.0093017025
0.099359825 0.075630605 0.10483779 0.07698861 -0.39500877 0.1406063 0.2191492 0.102883875
00000000: 0731 b5be 9269 c3bc 7f18 afbe d389 043d
00000010: 17ac 243e 08ec 34bd f279 acbe f3e5 acbe
00000020: 4f93 623e 56c4 133c e504 aebe 36eb 1cbe
00000030: b2c5 013e 830d babe 4ff8 4cbd 8f00 babe
00000040: 28ad 903d 95e7 7d3d cc3e 2d3e c55d 873d
00000050: f90d b43c 90f8 a3bd cbc6 703e 2b66 18bc
00000060: 2a7d cb3d 38e4 9a3d 32b5 d63d 34ac 9d3d
00000070: 973e cabe 19fb 0f3e a668 603e c8b4 d23d

arith.constant1 f4 [32, 32]
-0.16999575 -0.14129812 -0.07685707 -0.11845976 -0.028005123 -0.18914752 -0.1792506 0.092565015
0.10393785 0.043875698 0.09663642 -0.091798544 -0.05129493 0.084081784 -0.039298426 0.18942693
0.058965646 -0.0748004 -0.06701724 -0.11696376 -0.12681901 0.013973921 0.093092054 0.16862702
0.00024467363 -0.13255621 -0.16912179 0.09360173 0.09061171 0.12522048 0.027975403 -0.16360071
-0.065687574 -0.03404606 -0.1403943 -0.1642788 -0.056348756 0.11497505 -0.10187942 0.12135983
0.1381933 -0.0048408182 0.10923724 -0.09773803 -0.16461669 0.10125323 -0.03636155 0.07886398
-0.07822302 -0.112052724 0.14248116 -0.15966973 -0.09331587 0.037704654 0.17184022 -0.1324655
-0.024569053 0.034275513 0.031283706 0.04592914 0.09846662 0.00677886 -0.05634898 0.09065144
0.10357842 -0.03555921 0.17290036 0.12878272 0.06606996 0.09346692 -0.15151338 -0.07393365
-0.09708244 0.10588686 0.07228144 0.07499585 0.144892 -0.15080437 0.13217434 0.13412634
-0.08802626 0.16520318 -0.08963305 -0.05553971 -0.1493208 0.013134472 0.1481017 0.07556434
-0.0715515 0.07986574 -0.06301843 0.095909804 0.06673296 -0.10223399 0.1767868 0.14136054
0.13339677 0.036323544 0.025315192 -0.09146423 -0.07294357 0.016542828 -0.080203995 -0.17357117
0.08267366 0.0034508754 -0.13483234 0.026670793 0.09155641 0.040681046 -0.057087805 -0.13902672
-0.027780637 -0.08658811 -0.08644712 0.041404247 -0.030847166 0.12681602 -0.08813579 0.0314968
-0.11181465 0.17213461 -0.08712363 -0.010311867 0.05729672 -0.16124444 0.10432507 -0.023229826
0.12340153 0.13926603 -0.11853087 -0.15794793 0.1959839 -0.06719983 0.19620906 0.17321365
0.029395506 0.13702829 -0.16887599 -0.0009904663 0.08741453 -0.16289982 0.11552642 -0.092025176
-0.021534452 -0.08017557 0.068892084 0.114873625 0.00097110635 0.0026877623 -0.05511991 -0.0019478314
0.104432076 0.08202548 0.09834723 0.047142513 -0.108716294 0.08722504 -0.18101121 0.1511879
0.16580945 0.15447894 -0.09422993 -0.05058824 0.020945067 0.151784 0.0751162 0.101419955
-0.089885406 0.12003294 0.10952596 -0.09295006 0.0013124552 0.062133852 0.15213281 -0.110700704
-0.026475614 -0.07658412 0.022275208 -0.040595803 -0.13004367 -0.06554503 -0.10998716 -0.09058356
0.10239099 0.1382362 -0.05892934 0.051562563 0.037864223 0.13178992 0.027286287 -0.083461694
0.015549717 -0.15021993 0.08300628 0.087812476 -0.20375456 -0.16284512 -0.011778909 -0.17188086
-0.13129598 0.15887064 -0.009957003 0.1652267 -0.09399854 0.019052567 0.04497892 0.12090777
-0.071559615 0.11647271 -0.100562766 -0.14894305 -0.018601745 -0.15145642 0.061589897 0.052266832
0.1121695 -0.024843877 0.16804083 -0.014327754 0.08686823 0.12621826 0.12568277 -0.12910222
0.123748265 -0.15333362 0.13761735 -0.0019760954 0.05588577 -0.039352573 -0.11165441 0.03739687
-0.11936244 -0.14504835 -0.07210018 0.13666093 0.13958134 0.114119835 0.09508528 -0.15750593
0.03603574 -0.06468031 -0.0056140474 0.1385424 -0.15249193 -0.018886115 0.08620081 -0.10111589
0.16313915 0.13186151 -0.08744409 -0.035224844 0.12752914 0.16183262 0.117966205 -0.098622315
00000000: 5e13 2ebe 74b0 10be 3d67 9dbd 089b f2bd
00000010: 006b e5bc e3af 41be 788d 37be ba92 bd3d
00000020: 5edd d43d 01b7 333d 51e9 c53d e000 bcbd
00000030: a21a 52bd 1233 ac3d 63f7 20bd 22f9 413e
00000040: f685 713d f430 99bd 5640 89bd b28a efbd
00000050: d8dc 01be dff2 643c 0ca7 be3d 90ac 2c3e
00000060: 8a47 8039 d1bc 07be 432e 2dbe 44b2 bf3d
00000070: a292 b93d cc39 003e ac2c e53c f286 27be
00000080: 3587 86bd e273 0bbd 86c3 0fbe b438 28be
00000090: f4cd 66bd 0a78 eb3d 28a6 d0bd 818b f83d
000000a0: 8b82 0d3e ba9f 9ebb c6b7 df3d e02a c8bd
000000b0: 4791 28be da5d cf3d d9ef 14bd 7083 a13d
000000c0: 6433 a0bd e67b e5bd 95e6 113e 7680 23be
000000d0: 641c bfbd 3270 1a3d e2f6 2f3e 09a5 07be
000000e0: 0a45 c9bc 7b64 0c3d 5823 003d 3220 3c3d
000000f0: dea8 c93d 3321 de3b 30ce 66bd 76a7 b93d
00000100: ec20 d43d 89a6 11bd cb0c 313e 9edf 033e
00000110: b04f 873d 966b bf3d 5326 1bbe 876a 97bd
00000120: 29d3 c6bd 36db d83d 4b08 943d 6d97 993d
00000130: 925e 143e 766c 1abe b658 073e 6a58 093e
00000140: 1d47 b4bd 062b 293e 8891 b7bd 9b7d 63bd
00000150: 8de7 18be f831 573c f9a7 173e 7ac1 9a3d
00000160: 9889 92bd a690 a33d ce0f 81bd 5c6c c43d
00000170: 4aab 883d 0e60 d1bd 9907 353e d1c0 103e
00000180: 2a99 083e ffc7 143d ce61 cf3c 9951 bbbd
00000190: 7063 95bd d384 873c fe41 a4bd a4bc 31be
000001a0: cf50 a93d 1528 623b 7d11 0abe b57c da3c
000001b0: ed81 bb3d 2ba1 263d e7d4 69bd 055d 0ebe
000001c0: 3894 e3bc 1b55 b1bd 300b b1bd 8097 293d
000001d0: 32b3 fcbc 0fdc 013e 8980 b4bd ca02 013d
000001e0: 14ff e4bd 0e44 303e e06d b2bd 1bf3 28bc
000001f0: f7af 6a3d 431d 25be 62a8 d53d 7a4c bebc
00000200: f1b9 fc3d c19b 0e3e 50c0 f2bd 1abd 21be
00000210: 01b0 483e 11a0 89bd 07eb 483e eb5e 313e
00000220: d8ce f03c 2551 0c3e d4ed 2cbe 89d2 81ba
00000230: 6406 b33d 36cf 26be 1e99 ec3d b277 bcbd
00000240: 0569 b0bc 1733 a4bd 4b17 8d3d dd42 eb3d
00000250: d891 7e3a 2b25 303b 6ac5 61bd 604e ffba
00000260: 7ce0 d53d fafc a73d 466a c93d 8218 413d
00000270: a6a6 debd 0ba3 b23d 015b 39be 00d1 1a3e
00000280: f4c9 293e ba2f 1e3e 9ffb c0bd 9d35 4fbd
00000290: fd94 ab3c 446d 1b3e 86d6 993d 44b5 cf3d
000002a0: d715 b8bd d4d3 f53d 264f e03d 9a5c bebd
000002b0: b006 ac3a 1180 7e3d b4c8 1b3e 0db7 e2bd
000002c0: 63e3 d8bc 23d8 9cbd 7f7a b63c c947 26bd
000002d0: 2b2a 05be 793c 86bd f340 e1bd e083 b9bd
000002e0: 5eb2 d13d ca8d 0d3e e45f 71bd 4433 533d
000002f0: 8417 1b3d f0f3 063e 7e87 df3c f7ed aabd
00000300: 3dc4 7e3c 41d3 19be 32ff a93d 07d7 b33d
00000310: 09a5 50be dfc0 26be 53fc 40bc 8901 30be
00000320: 7472 06be fcae 223e b322 23bc 3031 293e
00000330: 4e82 c0bd 2114 9c3c d13b 383d 7e9e f73d
00000340: d98d 92bd 3f89 ee3d daf3 cdbd 8784 18be
00000350: b062 98bc 6417 1bbe b045 7c3d bf15 563d
00000360: 1fb9 e53d 6385 cbbc e512 2c3e f5be 6abc
00000370: f8e7 b13d 5c3f 013e fcb2 003e 5f33 04be
00000380: bb6f fd3d 7d03 1dbe 90eb 0c3e 6181 01bb
00000390: 7ae8 643d 2a30 21bd 11ab e4bd 762d 193d
000003a0: 4c74 f4bd 8e87 14be 42a9 93bd d8f0 0b3e
000003b0: 69ee 0e3e a9b7 e93d 12bc c23d 3c49 21be
000003c0: 369a 133d 1c77 84bd 0bf6 b7bb 0fde 0d3e
000003d0: d826 1cbe 0eb7 9abc 0d8a b03d d915 cfbd
000003e0: f30d 273e b406 073e e315 b3bd ed47 10bd
000003f0: 0097 023e 73b7 253e 4498 f13d 7ffa c9bd

arith.constant2 f4 [32, 1536]
0.012887513 -0.017832663 0.0040270663 -0.038608164 -0.016685743 0.00684268 -0.008548272 -0.00438138
0.001936775 0.0057450095 0.0058688084 0.011951327 -0.019595277 0.008227265 -0.02855189 0.020913206
-0.008495142 0.0146063315 0.010976406 -0.022325207 -0.011527163 -0.019820008 0.0013926825 -0.018682484
-0.0036768825 0.011657701 0.009056991 0.007645748 0.023270655 -0.023319153 -0.013661283 0.017229427
0.021251231 -0.004832145 -0.018565437 0.0045551923 -0.00073836837 -0.0061837235 -0.0016243523 -0.016432432
-0.023232574 -0.011074962 0.017305892 0.0076344972 -0.023467178 0.019740975 0.019877259 0.005746191
-0.026513116 -0.0001112198 0.0056539206 -0.021756317 -0.012977729 -0.0076161204 -0.0074532377 -0.014657816
0.01601671 0.008592792 -0.021342147 -0.021219147 -0.00536948 -0.0011896788 -0.008979236 0.026434163
0.0060984124 0.016803196 0.023605837 0.0068007396 0.0103718415 -0.0038751347 0.019037323 -0.008791939
0.008040584 3.6346385e-06 -0.012368695 0.022934223 0.022452017 -0.002768745 -0.005372403 -0.011716797
0.011128204 -0.004974908 -0.0071921702 -0.01992629 0.006182112 0.00598015 -0.0047257068 -0.008764723
-0.0146936625 0.021947248 0.032661162 0.024463901 0.021201946 -0.013433151 -0.00392455 0.008039616
0.0028257445 -0.012095081 -0.017216057 -0.009666387 -0.0153643135 -0.016648093 -0.020953583 0.018791964
0.01620189 -0.004672546 -0.020044988 0.009172886 -0.029637948 0.020508919 -0.028884597 0.01754485
-0.0020130405 0.028475495 -0.026671413 0.017930783 0.0041363286 0.012919525 -0.006483261 -0.015795086
0.009735494 0.022923525 -0.0056740735 0.014297886 0.022182839 -0.024831247 -0.015275115 0.022544717
-0.02502032 -0.0062370957 0.023012295 0.006479393 0.0024863193 0.011779383 0.0014321391 -0.0013480559
-0.024526818 -0.0072725187 0.0181706 -0.02278375 0.0065741786 0.020894475 -0.002287141 0.00026148153
0.0006488819 0.004126843 0.0145951845 -0.004768923 -0.024994176 0.030152338 -0.017169448 0.012502614
-0.016572693 -0.009176166 0.022407128 0.025568163 0.013780821 0.008339469 0.012553139 -0.0002436456
-0.007182461 -0.013871339 0.010412904 0.008414666 -0.009341962 -0.005876015 -0.0012444549 -0.0007222996
-0.0210141 -0.009569775 0.01249755 0.0223263 0.029042251 0.0035410873 0.012786144 0.0066731144
0.010234907 0.0097286 0.016099468 0.0054447916 -0.02262038 -0.028728576 -0.0036598628 -0.018210763
-0.008604848 0.012203423 0.013830759 -0.009426525 0.012376984 -0.010235424 -0.0050410796 0.013752086
-0.01866369 0.010782653 0.009036507 0.00051420287 0.0072916714 0.0062283226 0.005301975 0.015232035
-0.017924188 0.02120188 0.0024773804 0.0010255428 -0.0037809643 -0.008141879 -0.0032012295 -0.012815473
0.007195485 -0.0035885675 0.006801277 0.01087219 0.00814225 -0.020289294 0.011568004 -0.039887745
0.02093759 0.011335724 0.019233914 -0.009023308 -0.00087909505 -0.0010719902 -0.0161209 -0.0021026204
-0.024552153 -0.02905853 -0.0028276576 -0.012465012 0.013755766 0.0185668 0.020925976 0.00025819233
0.009808209 -0.009465555 -0.015434514 0.0097717885 -0.0070627313 -0.014505939 -0.024124546 -0.0054044565
0.0070455265 -0.0025960044 -0.01366291 -0.021006139 -0.014561568 0.022227015 0.013543428 -0.0030089612
0.00020037408 0.021236693 -0.021335468 -0.013201134 0.01493059 0.023665981 0.021192126 0.0023302112
00000000: 2626 533c ce15 92bc 7bf5 833b 9823 1ebd
00000010: 8ab0 88bc 8f38 e03b 0d0e 0cbc ae91 8fbb
00000020: 63db fd3a a240 bc3b 224f c03b 80cf 433c
00000030: 4686 a0bc a7cb 063c a7e5 e9bc 2c52 ab3c
00000040: 352f 0bbc 654f 6f3c 62d6 333c 5ae3 b6bc
00000050: 6ddc 3cbc 925d a2bc ac8a b63a 020c 99bc
00000060: daf7 70bb f1ff 3e3c c663 143c 2f89 fa3b
00000070: 1aa2 be3c cf07 bfbc 93d3 5fbc ba24 8d3c
00000080: 1017 ae3c f856 9ebb 8b16 98bc b943 953b
00000090: 108f 41ba d5a0 cabb 38e8 d4ba 4f9d 86bc
000000a0: 3d52 bebc c273 35bc 16c5 8d3c ce2a fa3b
000000b0: 3d3e c0bc d3b7 a13c a2d5 a23c 8b4a bc3b
000000c0: 0932 d9bc ad3e e9b8 8644 b93b 4e3a b2bc
000000d0: 8aa0 54bc a690 f9bb 4a3a f4bb 5627 70bc
000000e0: 7a35 833c c8c8 0c3c bad5 aebc c7d3 adbc
000000f0: 76f2 afbb ffee 9bba a51d 13bc 758c d83c
00000100: 31d5 c73b dba6 893c 0761 c13c bdd8 de3b
00000110: a8ee 293c f9f5 7dbb 29f4 9b3c 110c 10bc
00000120: a7bc 033c 9dea 7336 11a6 4abc 8de0 bb3c
00000130: 4bed b73c d573 35bb fc0a b0bb cff7 3fbc
00000140: 1253 363c 8e04 a3bb 4cac ebbb 753c a3bc
00000150: 5093 ca3b 22f5 c33b 1ada 9abb ea99 0fbc
00000160: b0bd 70bc b7ca b33c b6c7 053d 8568 c83c
00000170: b4af ad3c b816 5cbc 8399 80bb 98b8 033c
00000180: 2030 393b 722a 46bc b008 8dbc c45f 1ebc
00000190: 9aba 7bbc 9561 88bc d9a6 abbc 9bf1 993c
000001a0: d3b9 843c 281c 99bb 6335 a4bc df49 163c
000001b0: 48cb f2bc 5202 a83c 649f ecbc 38ba 8f3c
000001c0: 37ed 03bb 7145 e93c 027e dabc 94e3 923c
000001d0: 0a8a 873b 6aac 533c 8971 d4bb b264 81bc
000001e0: 9f81 1f3c 1eca bb3c 94ed b9bb ae41 6a3c
000001f0: c9b8 b53c e66a cbbc 7a44 7abc b3af b83c
00000200: 6af7 ccbc 8d60 ccbb 4884 bc3c 1751 d43b
00000210: 84f1 223b 50fe 403c 9db6 bb3a 40b1 b0ba
00000220: 77ec c8bc 4f4e eebb 83da 943c fda4 babc
00000230: 356c d73b e42a ab3c dce3 15bb 7517 8939
00000240: ba19 2a3a 783a 873b a420 6f3c a044 9cbb
00000250: 96c0 ccbc 0902 f73c f1a6 8cbc c4d7 4c3c
00000260: 75c3 87bc a157 16bc 278f b73c 5374 d13c
00000270: f4c8 613c 45a2 083c aeab 4d3c 1e7b 7fb9
00000280: da5a ebbb 9d44 63bc e39a 2a3c abdd 093c
00000290: 070f 19bc 968b c0bb fa1c a3ba b558 3dba
000002a0: c325 acbc 8cca 1cbc 86c2 4c3c a5e5 b63c
000002b0: 04ea ed3c 9611 683b fa7c 513c 24aa da3b
000002c0: 50b0 273c b564 1f3c 08e3 833c 396a b23b
000002d0: 604e b9bc 3158 ebbc 4fda 6fbb bd2e 95bc
000002e0: 59fb 0cbc def0 473c 689a 623c b671 1abc
000002f0: d5c8 4a3c 7bb2 27bc a42f a5bb 6e50 613c
00000300: 98e4 98bc b9a9 303c dc0d 143c 92cb 063a
00000310: f9ee ee3b f516 cc3b 31bc ad3b c98f 793c
00000320: bfd5 92bc 91af ad3c 8c5b 223b 826b 863a
00000330: 0eca 77bb 8465 05bc b8cb 51bb fdf7 51bc
00000340: 1ac8 eb3b 2c2e 6bbb 3fdd de3b 4521 323c
00000350: 1267 053c bc35 a6bc ba87 3d3c 5561 23bd
00000360: 4f85 ab3c 79b9 393c 7190 9d3c 7fd6 13bc
00000370: 1273 66ba 0682 8cba fa0f 84bc 1ecc 09bb
00000380: 9921 c9bc 280c eebc 3950 39bb 0d3a 4cbc
00000390: dd5f 613c 6719 983c f46c ab3c fd5d 8739
000003a0: 9cb2 203c 6a15 1bbc 0be1 7cbc da19 203c
000003b0: 7c6e e7bb 51aa 6dbc d7a0 c5bc de17 b1bb
000003c0: 29de e63b ba21 2abb 66da 5fbc 1115 acbc
000003d0: a593 6ebc 6e15 b63c 41e5 5d3c fe31 45bb
000003e0: 821b 5239 93f8 ad3c b8c7 aebc 9249 58bc
000003f0: 6f9f 743c 29df c13c 1c9b ad3c 75b6 183b

model_8/tf.__operators__.add/AddV2/y f4 [32]
-0.0073857782 0.008208375 0.013548545 0.02555259 -0.01577197 0.0016325846 0.008382005 -0.02358181
0.010641835 -0.0058259843 0.017218329 -0.003593544 -0.019422907 0.0034586384 -0.016440725 0.02049593
-0.025377337 0.007217078 -0.022184081 0.0065923184 -0.01905541 -0.016526243 -0.002197782 -0.0075203152
0.005686816 -0.02074679 0.023052273 0.021478098 0.02326052 -0.0058047934 0.0072077564 0.01231804
00000000: 6604 f2bb 6c7c 063c b7fa 5d3c aa53 d13c
00000010: 3834 81bc 73fc d53a ad54 093c a42e c1bc
00000020: 175b 2e3c e6e7 bebb 740d 8d3c aa81 6bbb
00000030: ca1c 9fbc 53aa 623b b3ae 86bc 15e7 a73c
00000040: 22e4 cfbc 3d7d ec3b 64bb b5bc 6004 d83b
00000050: 171a 9cbc 0b62 87bc aa08 10bb fa6c f6bb
00000060: 7858 ba3b 2cf5 a9bc 1fd8 bc3c d6f2 af3c
00000070: d98c be3c 2336 bebb 0b2f ec3b 9bd1 493c

model_8/tf.__operators__.add_1/AddV2/y f4 [32]
-0.14008686 0.11936051 0.15349117 -0.0100167645 0.009576367 -0.04576817 -0.006086395 -0.09354903
-0.09063778 -0.087627344 0.06916373 0.14241612 -0.087922715 0.025905734 -0.07844912 -0.15854794
-0.03567264 0.17744803 0.08167778 0.08938949 0.020158479 0.005080611 0.0966279 -0.0818287
0.072234996 0.025687346 -0.10657689 -0.08115559 -0.02080365 -0.01686151 0.03887679 0.12537768
00000000: ee72 0fbe 4873 f43d ca2c 1d3e 5b1d 24bc
00000010: 32e6 1c3c 6877 3bbd 6270 c7bb a296 bfbd
00000020: 4da0 b9bd f775 b3bd b7a5 8d3d 88d5 113e
00000030: d310 b4bd 4338 d43c efa9 a0bd 645a 22be
00000040: 791d 12bd f0b4 353e ae46 a73d d611 b73d
00000050: 6523 a53c 417b a63b d9e4 c53d ce95 a7bd
00000060: f1ef 933d 456e d23c fc44 dabd e734 a6bd
00000070: 6b6c aabc 2621 8abc 453d 1f3d 0263 003e

model_8/tf.math.add_2/Add/y f4 [1, 32]
-0.015894536 -0.0049147992 0.010446036 -0.00962532 0.020009153 -0.015397426 0.0045621814 -0.016982397
0.02400482 -0.019097047 -0.01372773 -0.0076667964 -0.017750286 -0.0017166652 -0.017224167 0.014205443
-0.017158022 -0.014044616 -0.0031501323 0.015923291 -0.00946924 0.009844755 -0.021412138 0.028698867
0.003205696 -0.01614741 0.0049706413 0.005338041 0.006545641 0.0068212105 0.009980534 -0.014168816
00000000: 4235 82bc 530c a1bb da25 2b3c 85b3 1dbc
00000010: 3cea a33c 7c45 7cbc 5a7e 953b ab1e 8bbc
00000020: c2a5 c43c 6971 9cbc 46ea 60bc c039 fbbb
00000030: 0c69 91bc ba01 e1ba b219 8dbc f2bd 683c
00000040: fb8e 8cbc 641b 66bc 7372 4ebb 9071 823c
00000050: df24 1bbc e54b 213c 8268 afbc e319 eb3c
00000060: a716 523b 9347 84bc c3e0 a23b bcea ae3b
00000070: d17c d63b 7684 df3b 6585 233c 5224 68bc

model_8/tf.math.add_5/Add/y f4 [1, 32]
0.26944402 -0.002306735 0.3048661 -0.0041124495 0.021173041 -0.0076226075 0.26928928 0.26467952
0.053769704 -0.0081629 0.26405677 -0.0092592025 0.005116572 0.28146455 0.022663563 0.2552363
-2.2569939e-05 0.04434508 0.0058827135 0.09427172 0.023746505 -0.06262391 0.020594833 -0.08017664
-0.023969576 -0.006398656 0.032580294 -0.006668854 0.25539866 0.030316705 0.06004816 0.0019629432
00000000: 91f4 893e 972c 17bb 6917 9c3e bac1 86bb
00000010: 1673 ad3c 11c7 f9bb 49e0 893e 1384 873e
00000020: 9f3d 5c3d afbd 05bc 7332 873e e9b3 17bc
00000030: eba8 a73b 1f1c 903e f0a8 b93c 55ae 823e
00000040: 9354 bdb7 30a3 353d c7c3 c03b 8811 c13d
00000050: 0888 c23c f740 80bd 7fb6 a83c a633 a4bd
00000060: d85b c4bc d1ab d1bb ea72 053d 6786 dabb
00000070: 9dc3 823e bd5a f83c 0ff5 753d b9a4 003b

model_8/tf.math.multiply_10/Mul/y f4 [1, 32]
0.9979152 0.99630666 1.0001264 0.98248684 1.0314853 0.9881162 1.0309259 0.9976552
0.990518 0.98190206 0.9932223 0.98561215 0.98389757 0.9484119 0.9971562 1.0231164
0.9855693 0.9897658 0.99149114 0.9904837 0.9917526 0.94956505 0.9934163 1.0035447
0.9976454 0.9857258 1.0209682 1.0188478 1.0190951 0.9999014 1.0050303 1.0028003
00000000: 5f77 7f3f f40d 7f3f 2404 803f 4284 7b3f
00000010: b607 843f 2ff5 7c3f 61f5 833f 5566 7f3f
00000020: 9692 7d3f ef5d 7b3f d143 7e3f 1451 7c3f
00000030: b6e0 7b3f 1fcb 723f a145 7f3f 7af5 823f
00000040: 454e 7c3f 4b61 7d3f 5dd2 7d3f 5790 7d3f
00000050: 80e3 7d3f b216 733f 8850 7e3f 2774 803f
00000060: b065 7f3f 8758 7c3f 16af 823f 9b69 823f
00000070: b571 823f 8af9 7f3f d5a4 803f c35b 803f

model_8/tf.math.multiply_22/Mul/y f4 [1, 32]
1.2797798 1.000465 1.3609816 1.0006698 1.0541737 0.9905636 1.2643093 1.2559468
1.0756737 0.985833 1.2601335 0.99072427 1.0010321 1.3162801 1.0180234 1.2413415
1.0058459 1.033411 1.0049198 1.1151401 1.0215025 0.9627297 1.0729574 0.9177538
0.9887399 0.998758 1.0363166 0.99651915 1.2583762 1.0663913 1.0836211 1.0047054
00000000: d3cf a33f 3d0f 803f a534 ae3f f315 803f
00000010: 2aef 863f 9395 7d3f e3d4 a13f ddc2 a03f
00000020: adaf 893f 8d5f 7c3f 0e4c a13f 1ba0 7d3f
00000030: d221 803f de7b a83f 974e 823f 47e4 9e3f
00000040: 8fbf 803f d046 843f 36a1 803f e9bc 8e3f
00000050: 98c0 823f 7475 763f ab56 893f eaf1 6a3f
00000060: 0f1e 7d3f 9bae 7f3f 06a6 843f e11b 7f3f
00000070: 7912 a13f 837f 883f 19b4 8a3f 309a 803f
